Individual Model/Arabic Character Recognition/Saved Model Character/model_digit.tflite (tflite, 645000 bytes, 18 tensors)

sequential_25/conv2d_75/BiasAdd/ReadVariableOp/resource f4 [32]
-0.04342989 -0.00901007 0.004357458 -0.0019348123 0.0024262653 0.043182615 0.025987698 0.013381222
-0.017561037 0.012718998 0.0032869393 0.020697113 -0.034813702 -0.009748148 0.0037513147 -0.039892532
-0.04258561 0.026064334 0.014839467 -0.002368069 0.0014753086 0.01435787 0.0101363165 0.0031807534
0.0120303305 0.0015128792 -0.06516354 0.008381454 0.00015129693 0.0004860053 -0.02703751 0.05217107
00000000: 8ae3 31bd f99e 13bc 02c9 8e3b 8799 fdba
00000010: fa01 1f3b 41e0 303d 27e4 d43c ea3c 5b3c
00000020: 2adc 8fbc 5863 503c b169 573b fe8c a93c
00000030: d098 0ebd b2b6 1fbc 9ed8 753b 5a66 23bd
00000040: 406e 2ebd df84 d53c 3c21 733c 9b31 1bbb
00000050: 245f c13a 463d 6b3c cb12 263c 3074 503b
00000060: dd1a 453c cd4b c63a 7674 85bd 5e52 093c
00000070: 76a5 1e39 87ce fe39 c57d ddbc 55b1 553d

sequential_25/conv2d_76/BiasAdd/ReadVariableOp/resource f4 [64]
-0.0991247 -0.0028770862 -0.014141979 -0.006522956 -0.19746593 -0.064140484 -0.10598381 0.0067046015
-0.12744848 -0.039819915 -0.2139966 -0.08949358 -0.14476717 -0.10071227 -0.048412934 -0.061953705
-0.08812538 -0.17203677 -0.15758148 -0.15630294 -0.11300714 -0.06353573 -0.13791075 -0.1197307
-0.14152752 -0.13988124 -0.08988125 -0.12503436 -0.19913653 -0.13793056 -0.095724806 -0.08682439
-0.05774817 -0.15572552 -0.023750324 -0.12351643 -0.24554087 -0.1157996 -0.07503306 -0.19444045
-0.100390725 -0.13493848 -0.06796233 -0.08840416 -0.09588137 -0.045862462 -0.025378888 -0.074609
-0.16258575 -0.087281 -0.088065065 -0.09861256 -0.1356635 -0.23595339 -0.20051357 -0.098645
-0.13735339 -0.14261496 -0.086255774 -0.03102342 -0.01389728 -0.009180123 -0.08487159 -0.09162228
00000000: e401 cbbd 7f8d 3cbb c2b3 67bc 85be d5bb
00000010: 8234 4abe 165c 83bd 0a0e d9bd 46b2 db3b
00000020: db81 02be 351a 23bd ed21 5bbe 6948 b7bd
00000030: d83d 14be 3c42 cebd a44c 46bd 2bc3 7dbd
00000040: 147b b4bd 682a 30be 0a5d 21be e10d 20be
00000050: 4a70 e7bd 051f 82bd 7a38 0dbe 5f35 f5bd
00000060: 97ec 10be 073d 0fbe a913 b8bd 0209 00be
00000070: 72ea 4bbe ab3d 0dbe 5e0b c4bd fcd0 b1bd
00000080: 5889 6cbd 8376 1fbe 0a90 c2bc 2ff6 fcbd
00000090: 116f 7bbe 5728 edbd efaa 99bd 661b 47be
000000a0: a799 cdbd 502d 0abe d62f 8bbd 3e0d b5bd
000000b0: 745d c4bd 47da 3bbd 63e7 cfbc 9acc 98bd
000000c0: e17c 26be 62c0 b2bd 755b b4bd 62f5 c9bd
000000d0: 5feb 0abe c49d 71be 6e53 4dbe 6406 cabd
000000e0: 5ea6 0cbe a809 12be dea6 b0bd d424 febc
000000f0: 6bb1 63bc 3a68 16bc 28d1 adbd 76a4 bbbd

sequential_25/conv2d_77/BiasAdd/ReadVariableOp/resource f4 [128]
-0.177028 -0.11102935 -0.087808765 -0.20539291 -0.20838816 -0.15838939 -0.109831676 -0.22390193
-0.20288862 -0.3009698 -0.12783143 -0.07984825 -0.25792015 -0.24445802 -0.19811174 -0.1598062
-0.15065983 -0.21860671 -0.2433877 -0.17016591 -0.19069658 -0.266184 -0.19048609 -0.095271766
-0.15738045 -0.100484766 -0.110146336 -0.15169577 -0.19100538 -0.14275332 -0.150355 -0.16627552
-0.13384698 -0.13336152 -0.15324147 -0.20737301 -0.21017738 -0.22787242 -0.03759991 -0.29390502
-0.13089104 -0.17861508 -0.17305955 -0.10623445 -0.16828652 -0.1143618 -0.15395916 -0.2404167
-0.22230314 -0.16413814 -0.16583876 -0.20431504 -0.2211143 -0.17167278 -0.22023678 -0.20387098
-0.17987692 -0.1672478 -0.2950788 -0.074003235 -0.18210326 -0.24140537 -0.1275093 -0.15146373
-0.21454856 -0.0842922 -0.244783 -0.21074003 -0.18858616 -0.15686649 -0.21597813 -0.27642933
-0.19957216 -0.09389928 -0.1674212 -0.1254976 -0.09373962 -0.082233384 -0.10048561 -0.24380207
-0.08675455 -0.028161334 -0.2387499 -0.30535227 -0.21585006 -0.20769136 -0.18453023 -0.11259664
-0.13884315 -0.11285599 -0.12118076 -0.14876574 -0.2008787 -0.18547961 -0.26945642 -0.12534505
-0.2545865 -0.21480279 -0.25609258 -0.17643806 -0.18799184 -0.13195352 -0.066123515 -0.18580337
-0.09841508 -0.12224017 -0.13780092 -0.076329 -0.20043707 -0.14040996 -0.11522483 -0.17022453
-0.12549214 -0.12579346 -0.13937587 -0.03571503 -0.19345015 -0.17281906 -0.20049731 -0.18481186
-0.162394 -0.24071431 -0.17636524 -0.15804185 -0.12172622 -0.20340452 -0.1700615 -0.18777628
00000000: d446 35be 5b63 e3bd 15d5 b3bd 8552 52be
00000010: b563 55be d430 22be 6eef e0bd 8c46 65be
00000020: 09c2 4fbe b718 9abe 3ee6 02be 7b87 a3bd
00000030: 1c0e 84be 3453 7abe cedd 4abe 3da4 23be
00000040: 9246 1abe 70da 5fbe a03a 79be f93f 2ebe
00000050: f745 43be 4549 88be c90e 43be d81d c3bd
00000060: 5728 21be f5ca cdbd 6794 e1bd 2356 1bbe
00000070: ea96 43be ed2d 12be a9f6 19be 2144 2abe
00000080: 2f0f 09be ec8f 08be 55eb 1cbe 9759 54be
00000090: bd38 57be 6357 69be 5d02 1abd b87a 96be
000000a0: 4d08 06be dfe6 36be 8636 31be 7391 d9bd
000000b0: 4d53 2cbe 8536 eabd 78a7 1dbe cc2f 76be
000000c0: 6fa3 63be d413 28be a3d1 29be f637 51be
000000d0: c96b 62be fdca 2fbe c085 61be 8ec3 50be
000000e0: a831 38be 0243 2bbe 9214 97be 028f 97bd
000000f0: 4779 3abe f832 77be cc91 02be 4f19 1bbe
00000100: 9eb2 5bbe 64a1 acbd 65a8 7abe 3ccc 57be
00000110: bb1c 41be 9ca1 20be 5f29 5dbe 2588 8dbe
00000120: a55c 4cbe 444e c0bd 7770 2bbe 7182 00be
00000130: 8ffa bfbd fa69 a8bd 66cb cdbd 40a7 79be
00000140: 5fac b1bd 99b2 e6bc db7a 74be 2257 9cbe
00000150: cc07 5dbe 0bad 54be 7ef5 3cbe 1199 e6bd
00000160: e62c 0ebe 0b21 e7bd 9e2d f8bd 0c56 18be
00000170: 25b3 4dbe 5eee 3dbe 31f6 89be 745a 00be
00000180: 2959 82be 43f5 5bbe 911e 83be 2eac 34be
00000190: ef80 40be d31e 07be c46b 87bd 3d43 3ebe
000001a0: d88d c9bd 0e59 fabd af1b 0dbe 6152 9cbd
000001b0: 603f 4dbe a1c7 0fbe fffa ebbd 574f 2ebe
000001c0: 0381 00be 00d0 00be 8cb8 0ebe ec49 12bd
000001d0: cc17 46be 7bf7 30be 2b4f 4dbe 523f 3dbe
000001e0: 9d4a 26be d07d 76be 1799 34be b9d5 21be
000001f0: 994b f9bd 4649 50be 9a24 2ebe 6d48 40be

sequential_25/dense_50/BiasAdd/ReadVariableOp/resource f4 [32]
0.13564473 0.10890781 0.03859459 0.24051599 0.281661 0.117548354 0.17324935 0.20540468
0.101814486 0.1604221 0.182453 0.20964596 0.22501971 0.0034055132 0.15075997 0.26507068
0.14321929 0.17184356 0.20622243 0.15481314 0.22918203 0.1933541 0.1465792 0.00832392
0.102278106 0.083506554 0.24405532 0.17783627 0.1045395 0.15576118 0.1977514 0.15287523
00000000: 74e6 0a3e 0f0b df3d 5c15 1e3d d349 763e
00000010: df35 903e 31bd f03d 4768 313e 9b55 523e
00000020: 1d84 d03d b145 243e f6d4 3a3e 6ead 563e
00000030: 916b 663e 082f 5f3b d260 1a3e 58b7 873e
00000040: 14a8 123e c2f7 2f3e f92b 533e 5687 1e3e
00000050: b2ae 6a3e 9efe 453e dc18 163e 0d61 083c
00000060: 2f77 d13d 7c05 ab3d a3e9 793e b61a 363e
00000070: ce18 d63d dc7f 1f3e 587f 4a3e 538b 1c3e

sequential_25/dense_51/BiasAdd/ReadVariableOp/resource f4 [28]
-0.20156564 -0.19870909 0.0032692852 -0.03932999 -0.010042255 -0.10608393 0.010357777 -0.10655863
-0.011784419 -0.10497736 -0.021823587 -0.052352637 -0.12702161 -0.06860183 -0.036772322 0.045956098
-0.048123013 0.00040434912 -0.15084465 0.055906955 0.09676547 -0.06038714 -0.22509201 -0.09444952
0.044519264 -0.07114756 -0.0717402 -0.042962637
00000000: 3967 4ebe 657a 4bbe 8141 563b 7c18 21bd
00000010: 4588 24bc 8842 d9bd aab3 293c 693b dabd
00000020: 7013 41bc 5ffe d6bd 61c7 b2bc b86f 56bd
00000030: f411 02be 1e7f 8cbd 939e 16bd 763c 3c3d
00000040: a31c 45bd d2fe d339 0577 1abe b1fe 643d
00000050: fa2c c63d 8158 77bd 857e 66be c06e c1bd
00000060: d559 363d d0b5 91bd 87ec 92bd 97f9 2fbd

sequential_25/batch_normalization_100/FusedBatchNormV3 f4 [32]
-0.044305578 -0.12932836 -0.037632614 0.09301613 -0.39111558 -0.86535513 -0.8867413 -0.48087886
-0.22814396 -0.24584943 -0.010161191 -0.64755553 -0.0814199 -0.14743385 -0.16423269 -0.051536813
-0.02183643 -0.83681214 -0.47727457 -0.22608495 -0.48327765 -0.43280444 -0.3682722 -0.1726343
-0.43309554 -0.06429052 -0.18743424 -0.28819436 -0.15105373 -0.16459662 -0.02644372 -1.5974485
00000000: c479 35bd a76e 04be a824 1abd 3e7f be3d
00000010: 4d40 c8be ea87 5dbf 7a01 63bf c135 f6be
00000020: 929e 69be f4bf 7bbe 207b 26bc 33c6 25bf
00000030: 7abf a6bd e6f8 16be 9d2c 28be 4418 53bd
00000040: 50e2 b2bc 5239 56bf 555d f4be d082 67be
00000050: 2b70 f7be 8b98 ddbe 2c8e bcbe 0cc7 30be
00000060: b3be ddbe c0aa 83bd c3ee 3fbe 368e 93be
00000070: d4ad 1abe 048c 28be 80a0 d8bc 3179 ccbf

sequential_25/batch_normalization_100/FusedBatchNormV31 f4 [32]
26.633726 15.063856 26.765303 25.821014 38.509224 23.225658 32.195045 29.03441
27.784744 26.959925 28.807617 27.27921 9.673176 23.949236 29.945 30.37873
24.53049 28.704876 27.684711 27.304895 33.02031 29.66368 30.27693 39.33816
28.642218 33.95506 26.663395 28.241331 35.57759 24.830671 24.252161 26.815405
00000000: df11 d541 8e05 7141 571f d641 7091 ce41
00000010: 7209 1a42 26ce b941 bac7 0042 7946 e841
00000020: 2847 de41 edad d741 0076 e641 d23b da41
00000030: 54c5 1a41 0998 bf41 5c8f ef41 a407 f341
00000040: 723e c441 96a3 e541 4a7a dd41 6d70 da41
00000050: cc14 0442 374f ed41 2737 f241 475a 1d42
00000060: 4323 e541 fbd1 0742 a24e d541 3fee e141
00000070: 744f 0e42 37a5 c641 6d04 c241 f385 d641

sequential_25/batch_normalization_101/FusedBatchNormV3 f4 [64]
-0.25981367 -0.1568639 0.025212422 0.008021325 -0.06184928 -0.036955133 0.15459964 -0.014866084
0.1816204 -0.40230337 0.20650356 -0.110783115 0.109595984 -0.04519932 0.07949895 -0.22800496
0.05134338 -0.044264853 -0.04531686 -0.17522004 -0.027497828 0.031131387 -0.2095207 0.047077805
0.12646306 -0.008975908 -0.2611222 0.010574505 0.17829952 -0.22708777 -0.27111503 -0.11957185
-0.02842772 0.1832334 -0.0936525 -0.022106022 -0.04022467 -0.15160394 -0.1916936 -0.047195613
0.12337884 -0.09552068 0.10918951 -0.11311588 -0.27549928 -0.3017906 -0.24092068 0.00699614
0.17338778 -0.08651677 0.12309277 -0.12992886 0.22369409 -0.09466083 -0.18886311 -0.08777336
0.02592969 0.1511567 -0.017798454 0.19507895 -0.08268541 -0.2934973 -0.030684859 -0.204772
00000000: 4c06 85be eea0 20be 488a ce3c e06b 033c
00000010: ac55 7dbd 445e 17bd 5e4f 1e3e e090 73bc
00000020: b3fa 393e b5fa cdbe ab75 533e 42e2 e2bd
00000030: dc73 e03d ec22 39bd 58d0 a23d 227a 69be
00000040: 704d 523d 104f 35bd 2c9e 39bd e26c 33be
00000050: 2043 e1bc 4007 ff3c 988c 56be a8d4 403d
00000060: 887f 013e b00f 13bc cfb1 85be b040 2d3c
00000070: 2694 363e b289 68be 97cf 8abe 16e2 f4bd
00000080: 40e1 e8bc 89a1 3b3e e2cc bfbd b017 b5bc
00000090: a0c2 24bd 103e 1bbe 544b 44be 3050 41bd
000000a0: 0cae fc3d 59a0 c3bd c09e df3d 4ca9 e7bd
000000b0: 3e0e 8dbe 4c84 9abe e9b3 76be e03f e53b
000000c0: 918c 313e b42f b1bd 1018 fc3d 120c 05be
000000d0: 1010 653e 8add c1bd 5565 41be 85c2 b3bd
000000e0: 806a d43c d2c8 1a3e 10ce 91bc c7c2 473e
000000f0: f856 a9bd 4745 96be d05e fbbc c0af 51be

sequential_25/batch_normalization_101/FusedBatchNormV31 f4 [64]
1.8112097 2.7912529 2.6373925 4.0210896 1.6316044 1.7985882 4.718636 2.068942
2.7319012 2.2321045 3.23358 2.256326 1.8157924 3.780987 1.8448086 2.1696963
2.5475867 2.948755 2.070274 3.4022524 2.2625012 3.7473505 2.4235327 2.4738345
2.5971277 4.593191 3.2457643 2.8296707 2.8846757 1.8129689 3.0539994 1.8717666
1.7953677 3.5964227 3.661057 2.3360257 3.146339 3.5842614 2.435098 1.7472944
3.0438836 2.6456192 2.1083121 2.217024 3.3355498 2.2093112 2.1548119 2.3116066
2.9688675 2.199073 2.5144057 2.2281637 2.5481534 2.1248074 2.7823238 2.3144052
3.082478 3.8189754 3.3012002 3.977489 1.8630954 1.6114571 2.0498028 1.7689512
00000000: b8d5 e73f e3a3 3240 0acb 2840 c4ac 8040
00000010: 6ad8 d03f 2338 e63f 11ff 9640 8c69 0440
00000020: 78d7 2e40 cdda 0e40 faf2 4e40 a567 1040
00000030: e36b e83f b1fb 7140 b022 ec3f 4edc 0a40
00000040: a90b 2340 67b8 3c40 5f7f 0440 81be 5940
00000050: d2cc 1040 97d4 6f40 291b 1b40 4e53 1e40
00000060: 5737 2640 6cfb 9240 9aba 4f40 5319 3540
00000070: 879e 3840 5d0f e83f ba74 4340 0c96 ef3f
00000080: 9cce e53f ca2b 6640 c24e 6a40 7281 1540
00000090: 9e5d 4940 8a64 6540 a5d8 1b40 58a7 df3f
000000a0: fdce 4240 d351 2940 96ee 0640 b9e3 0d40
000000b0: a679 5540 5b65 0d40 70e8 0940 5df1 1340
000000c0: ed01 3e40 9dbd 0c40 06ec 2040 3c9a 0e40
000000d0: f214 2340 d8fc 0740 9811 3240 371f 1440
000000e0: 5247 4540 186a 7440 dd46 5340 2e8f 7e40
000000f0: e979 ee3f 3a44 ce3f f82f 0340 fe6c e23f

sequential_25/batch_normalization_102/FusedBatchNormV3 f4 [128]
-0.020280808 -0.40306062 -0.23499274 -0.12565966 0.07639328 -0.38723013 -0.42922425 -0.42020914
-0.27959412 -0.1843479 -0.4946585 -0.003916368 -0.43480563 -0.065542504 0.3198806 -0.3149761
-0.49136725 -0.44771975 -0.095080346 -0.17296273 -0.0061035156 -0.29431581 -0.3535109 0.020233557
-0.37192136 -0.12061718 0.023056448 -0.3234244 -0.3830344 -0.5032793 -0.54393965 -0.28009215
-0.23176885 -0.28420344 -0.4061578 -0.076834545 -0.67956203 0.04285781 -0.54302573 -0.057279006
-0.38606405 -0.7855004 -0.37395465 -0.7938134 -0.4695615 -0.5642779 -0.34224433 -0.08410381
-0.35257667 -0.02031079 0.002139151 -0.48897287 -0.33765858 -0.24523516 -0.21202454 -0.29905584
-0.26314735 -0.10039699 -0.013300583 0.004427254 -0.56824183 0.036044374 -0.6720979 -0.595543
-0.12791497 -0.1751307 -0.018587768 -0.26743287 -0.4720023 -0.036697596 -0.19185263 0.060929894
0.0769991 -0.36084747 0.07544871 -0.36340368 -0.38747033 -0.31424847 -0.42527646 -0.02915214
-0.62420654 -0.3829997 0.004382789 -0.04591708 -0.13131227 -0.09246367 -0.2780074 -0.31092745
-0.20960447 -0.4100963 -0.019296527 -0.28629762 -0.09801118 -0.5733166 -0.32604638 -0.3321594
-0.64864016 -0.14845228 -0.20498529 -0.18566513 -0.47392726 -0.6279954 -0.38534158 0.0631116
-0.59529805 -0.30702662 0.062471926 -0.20452476 -0.22931471 -0.027667135 -0.5410647 -0.3177241
-0.5053044 -0.429215 -0.3162418 -0.51247734 -0.23627762 -0.16191658 -0.35034522 -0.48399016
-0.46608943 -0.5624215 -0.29303706 -0.4723849 -0.30220452 -0.24135754 -0.102500275 -0.6202449
00000000: f023 a6bc f65d cebe f0a1 70be edac 00be
00000010: 1474 9c3d 0743 c6be 48c3 dbbe a725 d7be
00000020: f626 8fbe b2c5 3cbe e143 fdbe e054 80bb
00000030: d89e debe 263b 86bd 64c7 a33e 8c44 a1be
00000040: 7d94 fbbe 863b e5be 7cb9 c2bd 241d 31be
00000050: 0000 c8bb 90b0 96be 61ff b4be d8c0 a53c
00000060: 7a6c bebe 2406 f7bd e0e0 bc3c e297 a5be
00000070: 161d c4be ead6 00bf a13f 0bbf 3d68 8fbe
00000080: d054 6dbe 1d83 91be eaf3 cfbe 6e5b 9dbd
00000090: c7f7 2dbf ac8b 2f3d bc03 0bbf 649d 6abd
000000a0: 30aa c5be 8e16 49bf fc76 bfbe 5b37 4bbf
000000b0: 5d6a f0be 8474 10bf a63a afbe 9e3e acbd
000000c0: ee84 b4be d062 a6bc 0031 0c3b a75a fabe
000000d0: 96e1 acbe ed1e 7bbe f61c 59be d91d 99be
000000e0: 40bb 86be f09c cdbd b0ea 59bc 8012 913b
000000f0: 4c78 11bf 44a3 133d 9c0e 2cbf 8275 18bf
00000100: 24fc 02be 7655 33be 6045 98bc f6ec 88be
00000110: 49aa f1be 3850 16bd 0475 44be a091 793d
00000120: b4b1 9d3d 00c1 b8be da84 9a3d 0c10 babe
00000130: 8362 c6be 2de5 a0be d6bd d9be 78d0 eebc
00000140: 00cc 1fbf 8918 c4be 809d 8f3b 8c13 3cbd
00000150: b976 06be 985d bdbd fc56 8ebe e231 9fbe
00000160: 8ea2 56be 24f8 d1be c013 9ebc 9a95 92be
00000170: 16ba c8bd e0c4 12bf 8def a6be cc10 aabe
00000180: 480d 26bf e003 18be aae7 51be 001f 3ebe
00000190: 98a6 f2be 4ec4 20bf 7e4b c5be a840 813d
000001a0: 7465 18bf 9832 9dbe 90e2 7f3d f06e 51be
000001b0: 7ad1 6abe 30a6 e2bc 3783 0abf bcac a2be
000001c0: a15b 01bf 12c2 dbbe 72ea a1be b731 03bf
000001d0: c3f2 71be 76cd 25be 7360 b3be 8fcd f7be
000001e0: 46a3 eebe dbfa 0fbf f408 96be 6fdc f1be
000001f0: 8dba 9abe 6e26 77be aaeb d1bd 5fc8 1ebf

sequential_25/batch_normalization_102/FusedBatchNormV31 f4 [128]
0.7085785 0.46462965 0.99245685 1.5583994 1.9292809 1.0498201 0.8647023 1.023908
0.95585895 1.2892838 0.9066571 1.116665 0.9359718 1.2671711 1.0772076 0.37950888
0.8239694 0.92734665 0.51202273 0.9749071 1.0255206 0.5755352 1.1022363 1.0376536
1.1428667 0.9383808 0.8923748 1.2036135 1.267741 1.3390608 1.605336 1.0420773
0.67385733 0.6377608 1.3001834 0.966868 0.76471585 1.3348019 0.80119646 1.0086343
0.6221819 0.70546246 1.079972 0.80613285 1.6032125 1.1260185 1.4321868 1.1376414
0.78632087 1.1059915 1.5295635 1.2629563 0.93722135 0.53835917 1.1588647 1.1288563
0.85623986 0.90285426 0.93145156 2.055008 0.87385905 1.6683106 0.9410498 0.70935917
0.583525 1.4132378 1.034915 1.0954279 1.1915401 1.2809972 1.4232473 0.7539291
0.76048297 0.60402435 1.4959005 0.8259945 0.89208394 0.7448233 0.82675165 1.0159568
0.8490374 0.9027865 0.87169534 0.88127875 1.258713 1.1327015 1.2834883 0.74595886
0.74361545 0.9585667 0.7584055 1.0967696 1.4773542 0.79520696 1.4512846 1.0668412
0.7096976 1.1917467 0.7893671 1.334933 1.1136101 1.1349809 0.7730158 1.393937
0.83036536 1.624634 1.7956867 1.1792648 1.1380556 0.9974077 0.7682738 1.1567879
0.91853994 0.8537687 1.0309052 1.5113165 1.2079824 0.8256693 0.978965 1.5125158
1.116163 0.5492064 1.9940264 0.80339664 1.3832505 1.2040503 0.793954 1.2638323
00000000: 6765 353f f0e3 ed3e a711 7e3f a279 c73f
00000010: adf2 f63f 8160 863f 215d 5d3f 6b0f 833f
00000020: 2cb3 743f 4007 a53f ae1a 683f e1ee 8e3f
00000030: d99b 6f3f aa32 a23f f0e1 893f fd4e c23e
00000040: a9ef 523f 9766 6d3f ec13 033f 8393 793f
00000050: 4244 833f 4656 133f 1416 8d3f d5d1 843f
00000060: 7549 923f b939 703f ad72 643f 0210 9a3f
00000070: 5645 a23f 5866 ab3f a67b cd3f ca62 853f
00000080: ea81 2c3f 4b44 233f 696c a63f a984 773f
00000090: 6bc4 433f cada aa3f 361b 4d3f ee1a 813f
000000a0: 5047 1f3f 3099 343f 863c 8a3f b95e 4e3f
000000b0: 1136 cd3f 6021 903f e651 b73f 3c9e 913f
000000c0: 534c 493f 2191 8d3f bdc8 c33f 8da8 a13f
000000d0: bded 6f3f e8d1 093f ae55 943f 5d7e 903f
000000e0: 8932 5b3f 7521 673f 9c73 6e3f 4085 0340
000000f0: 3ab5 5f3f 348b d53f a4e8 703f 9098 353f
00000100: e561 153f fae4 b43f 1878 843f fb36 8c3f
00000110: 6384 983f b7f7 a33f f82c b63f 7f01 413f
00000120: 03af 423f 57a1 1a3f ab79 bf3f 6074 533f
00000130: 9d5f 643f bdac 3e3f ffa5 533f df0a 823f
00000140: 845a 593f 041d 673f 6d27 5f3f 7c9b 613f
00000150: 821d a13f 5dfc 903f 5849 a43f 29f7 3e3f
00000160: 955d 3e3f a164 753f dd26 423f f262 8c3f
00000170: f119 bd3f af92 4b3f b2c3 b93f 418e 883f
00000180: beae 353f 288b 983f f613 4a3f 16df aa3f
00000190: c78a 8e3f 0e47 913f 5de4 453f 876c b23f
000001a0: d392 543f 02f4 cf3f 10d9 e53f 26f2 963f
000001b0: ceab 913f 1c56 7f3f 97ad 443f a011 943f
000001c0: 6f25 6b3f 9690 5a3f b4f4 833f d272 c13f
000001d0: 2b9f 9a3f 105f 533f 739d 7a3f 1e9a c13f
000001e0: 6ede 8e3f ca98 0c3f 423c ff3f 67ab 4d3f
000001f0: 5a0e b13f 521e 9a3f 9240 4b3f 42c5 a13f

sequential_25/batch_normalization_103/batchnorm/mul f4 [32]
2.0009215 1.7960156 1.804693 1.9228848 1.6988474 1.8709433 1.5637276 1.5493718
1.709637 1.6444293 2.2627168 1.5359781 1.7225814 2.2456257 2.0437448 1.8908114
1.9054699 1.7042528 1.5292121 1.6733598 1.9442621 2.2402604 1.7688296 1.971173
1.6224416 1.6735423 1.9139798 1.5317969 1.8186702 1.6623147 1.647702 1.7103704
00000000: 190f 0040 d7e3 e53f 2e00 e73f 1721 f63f
00000010: d573 d93f 127b ef3f 3a28 c83f d151 c63f
00000020: 63d5 da3f a97c d23f 5ad0 1040 ee9a c43f
00000030: 8c7d dc3f 55b8 0f40 b7cc 0240 1c06 f23f
00000040: 70e6 f33f f524 da3f 39bd c33f a730 d63f
00000050: 95dd f83f 6d60 0f40 0269 e23f 664f fc3f
00000060: 2bac cf3f a236 d63f 4afd f43f ec11 c43f
00000070: 2fca e83f bac6 d43f e6e7 d23f 6bed da3f

sequential_25/batch_normalization_103/batchnorm/sub f4 [32]
-2.326708 -2.2292898 -1.6278315 -2.5039778 -2.3801048 -2.0145078 -2.2761405 -2.5866537
-2.2535636 -2.2103672 -1.7923855 -2.2910168 -2.25683 -1.2911906 -1.9513965 -2.582187
-2.3464682 -2.0482173 -2.133889 -2.368967 -2.6518629 -2.2069125 -1.9354342 -1.6660511
-1.8852203 -2.295982 -2.345521 -2.038744 -1.9322112 -2.692144 -2.0226305 -2.1288912
00000000: c9e8 14c0 afac 0ec0 c85c d0bf 2c41 20c0
00000010: a353 18c0 b2ed 00c0 49ac 11c0 bc8b 25c0
00000020: 633a 10c0 a876 0dc0 e36c e5bf 05a0 12c0
00000030: e76f 10c0 bc45 a5bf 5cc7 f9bf 8d42 25c0
00000040: 892c 16c0 fe15 03c0 a391 08c0 289d 17c0
00000050: 1fb8 29c0 0e3e 0dc0 4fbc f7bf 2a41 d5bf
00000060: e64e f1bf 5ef1 12c0 041d 16c0 c87a 02c0
00000070: b252 f7bf 164c 2cc0 c772 01c0 c13f 08c0

sequential_25/dense_50/MatMul f4 [32, 2048]
-0.0025899613 0.0009713194 0.014679938 -0.00047338204 0.0041197226 -0.0038397107 0.000565631 0.003256841
-0.00039231704 -0.0012863702 -0.0065028938 -0.0023487683 -0.0046341727 0.0042982195 0.0020686176 0.012149963
0.013139017 0.0074787666 0.0058336006 -0.0010151399 -0.00034555787 -0.0009155567 -0.0027104956 -0.0012556729
0.0032302535 0.0035551477 0.0019809706 0.0011138254 0.005658955 0.00021868621 -0.0014872598 -0.0068869567
-0.0005998875 -0.0036062687 -0.012047509 0.007933254 0.01476197 0.0051108603 -0.0007969141 -0.0026271495
-0.0010070428 -0.0034985251 0.00063036295 0.0038709778 0.005701542 -0.00396237 -0.0013776709 0.0062862495
-0.0029286726 -0.0032525354 -0.0012776621 -0.0055091656 -0.0053733825 -0.0011922781 -0.0032916847 -0.0030475259
-0.021295274 -0.0034504053 -0.0027795925 0.0017011929 -0.0030239483 -9.492457e-05 0.0073507945 0.017727727
0.005280066 0.004712881 0.0017500033 0.010620651 0.00770158 0.0046019065 -0.001060075 -0.0030939342
0.002388432 -0.0045876773 -0.007678682 -0.006461586 -0.0016023228 -0.0035404344 -0.00012637771 -0.0022454269
0.005778407 -0.0038681887 0.0032446657 -0.00039246667 8.430704e-05 -0.0030378164 0.0019300889 -0.0009886156
-0.0027404823 0.0066544963 0.00444668 0.0056396746 0.0038851053 0.0051121293 0.00032768433 0.0010042794
0.005136139 0.0009256747 0.0027728085 -0.0051478166 0.0076706214 0.0072263125 0.002639903 -0.0009459865
-0.01237327 0.0016642673 -8.629837e-05 -0.0014399944 -0.0044854283 0.0027332455 -0.00059107755 0.0101196105
-0.020564038 0.0055656703 -0.0013110229 0.0006479949 0.008556649 -0.0020576606 0.018108554 0.0073521035
0.01523487 0.0014004416 0.0025460524 0.005128005 -0.0003032037 0.011815647 -0.0014245987 -0.0030911122
-0.004515256 -0.0095793195 0.008429202 0.0027400255 -0.0030175732 0.00183865 0.0009552393 -0.0030446546
-0.0035058837 0.00056549767 0.009622982 0.0064388593 0.0013345747 0.0035345233 -0.0020544764 0.002541068
-0.001855811 0.031578824 0.0044837897 -0.00399195 0.0048351777 -0.002866924 -0.01233144 0.004263413
-0.00016869997 0.0062909797 -0.0009877238 0.002670913 0.01254356 0.0032427227 -0.0025894062 -0.005992826
0.012065754 0.0008691399 0.007442951 0.004136043 0.0044986447 0.00088899577 -0.0037081856 0.0014037938
0.007332558 -0.015076975 -0.00076264166 -0.0055196537 0.014237957 -0.0010500881 -0.0039707245 0.0059521226
0.0048542065 -0.0017111356 -0.0003574803 -0.005422474 -0.0044738227 0.0034042317 0.0070759105 -0.0023125806
0.005685774 0.021515487 0.0037322047 0.002480915 -0.0061871065 0.00019974764 -0.006176698 0.009857152
0.0051899306 0.00020819684 0.0025440513 -0.0061706793 -0.010858575 0.009685101 -0.0011094478 -0.003013532
0.0004238782 0.00016638121 0.00011255379 0.00053642207 -0.0014196577 0.0043685827 0.005257381 -0.00936262
-0.0027218983 -0.011590784 0.003834911 0.0012822429 -0.003098383 -0.004430091 -0.0016961743 -0.0053431685
0.007612102 0.00023409889 0.0040000584 -0.008963005 0.0035889586 0.016886631 -0.005377232 -0.0028251235
0.009460517 -0.0057237577 0.0028550238 -0.0028280367 -0.008707738 0.008455925 -0.006375242 0.00574393
-0.008100936 0.003998219 0.00058534526 -0.0013851975 -0.010254557 -0.0060305474 0.0022270884 0.0034065684
-0.010584023 0.0095210755 -0.0066900873 -0.0060773473 0.010673008 0.0033763943 0.018084466 -0.00032986404
0.017601594 -0.01584078 -0.002413097 -0.011244083 -0.0022990706 -0.015212854 -0.007008741 -0.003491146
00000000: 57bc 29bb 24a0 7e3a 1f84 703c 4330 f8b9
00000010: bdfe 863b a8a3 7bbb db46 143a ba70 553b
00000020: e7af cdb9 6c9b a8ba 3a16 d5bb cbed 19bb
00000030: 42da 97bb 14d8 8c3b a591 073b a310 473c
00000040: 0845 573c 7110 f53b ca27 bf3b 710e 85ba
00000050: fe2b b5b9 f801 70ba 92a2 31bb 6495 a4ba
00000060: a9b2 533b 7bfd 683b 2cd3 013b c7fd 913a
00000070: c16e b93b 224f 6539 28f0 c2ba fbab e1bb
00000080: c541 1dba 2657 6cbb ea62 45bc 7bfa 013c
00000090: 31dc 713c 0179 a73b 00e8 50ba 412c 2cbb
000000a0: c0fe 83ba 8347 65bb f13e 253a 3bb0 7d3b
000000b0: 00d4 ba3b c5d6 81bb f792 b4ba e2fc cd3b
000000c0: f9ee 3fbb 7d28 55bb 3a77 a7ba 3b86 b4bb
000000d0: 3313 b0bb 3746 9cba 4eb9 57bb 00b9 47bb
000000e0: 6d73 aebc 3220 62bb d329 36bb 90fa de3a
000000f0: 6f2d 46bb 3e12 c7b8 efde f03b bd39 913c
00000100: 6704 ad3b 836e 9a3b 5e60 e53a 3d02 2e3c
00000110: 895d fc3b 97cb 963b 37f2 8aba 9ac3 4abb
00000120: 3d87 1c3b 3a54 96bb 749d fbbb b6bb d3bb
00000130: 0805 d2ba a206 68bb 4284 04b9 0328 13bb
00000140: cb58 bd3b 7081 7dbb 75a4 543b fcc3 cdb9
00000150: ffcd b038 1a16 47bb 09fb fc3a 6f94 81ba
00000160: aa99 33bb f60d da3b 75b5 913b 05cd b83b
00000170: 409d 7e3b a683 a73b 0ccd ab39 06a2 833a
00000180: 0f4d a83b faa8 723a 02b8 353b 04af a8bb
00000190: d659 fb3b b4ca ec3b 3902 2d3b 14fc 77ba
000001a0: 41b9 4abc 8b23 da3a 16fb b4b8 32be bcba
000001b0: 80fa 92bb 4020 333b 8bf2 1aba b9cc 253c
000001c0: ea75 a8bc 3a60 b63b a1d6 abba 34de 293a
000001d0: 3031 0c3c d1d9 06bb 6458 943c eae9 f03b
000001e0: ad9b 793c 068f b73a acdb 263b d308 a83b
000001f0: 50f7 9eb9 6a96 413c 9ab9 baba 4294 4abb
00000200: b6f4 93bb 94f2 1cbc a31a 0a3c 0092 333b
00000210: 7ac2 45bb dbfe f03a 0669 7a3a d488 47bb
00000220: f8c2 65bb e83d 143a b6a9 1d3c 11fd d23b
00000230: e5ec ae3a 76a3 673b 65a4 06bb 0c88 263b
00000240: af3e f3ba cc58 013d c1ec 923b e7ce 82bb
00000250: 6970 9e3b 01e3 3bbb cf09 4abc 1ab4 8b3b
00000260: 0ee5 30b9 9024 ce3b 8376 81ba 7c0a 2f3b
00000270: 8183 4d3c dc83 543b 07b3 29bb 785f c4bb
00000280: 71af 453c fed6 633a 00e4 f33b a587 873b
00000290: 5e69 933b 7f0b 693a 0805 73bb 81ff b73a
000002a0: f445 f03b 6b05 77bc 04ec 47ba 36de b4bb
000002b0: 5246 693c 1ca3 89ba da1c 82bb 060a c33b
000002c0: 0910 9f3b 2f48 e0ba 326c bbb9 02af b1bb
000002d0: 2599 92bb 8819 5f3b 0add e73b aa8e 17bb
000002e0: bb4f ba3b 3f41 b03c 0198 743b d996 223b
000002f0: 36bd cabb 5973 5139 e665 cabb e47f 213c
00000300: 4b10 aa3b 6a4f 5a39 19ba 263b 6933 cabb
00000310: 2ae8 31bc 42ae 1e3c e46a 91ba ad7e 45bb
00000320: f83b de39 9e76 2e39 db0a ec38 ad9e 0c3a
00000330: cf13 baba 5426 8f3b 1c46 ac3b ad65 19bc
00000340: e061 32bb 46e7 3dbc 2153 7b3b ef10 a83a
00000350: 3e0e 4bbb 4c2a 91bb 2a52 deba bf15 afbb
00000360: f16e f93b 7178 7539 ec12 833b 91d9 12bc
00000370: bc34 6b3b d555 8a3c 7e33 b0bb b525 39bb
00000380: 4900 1b3c 5c8e bbbb 5a1b 3b3b 9556 39bb
00000390: e6aa 0ebc b88a 0a3c 68e7 d0bb 9437 bc3b
000003a0: cab9 04bc 7e03 833b db71 193a 848f b5ba
000003b0: bb02 28bc e69b c5bb 58f4 113b bc40 5f3b
000003c0: 9c68 2dbc 49fe 1b3c 8538 dbbb 7c24 c7bb
000003d0: d7dd 2e3c 7f46 5d3b e025 943c 9af1 acb9
000003e0: 3831 903c 86c4 81bc 0d25 1ebb 1a39 38bc
000003f0: 01ac 16bb 563f 79bc 95a9 e5bb b6cb 64bb

sequential_25/dense_51/MatMul f4 [28, 32]
-0.3911045 -0.37855306 -0.16774221 -0.49723664 0.40111056 -0.17335485 -0.37870568 -0.30551443
-0.13411207 -0.16600843 0.06264831 -0.28759778 -0.10589803 0.29165444 0.3987635 0.20236391
-0.33569676 -0.24052529 -0.19562338 0.37368104 0.010930387 0.30943596 -0.29309592 -0.11563842
0.39188898 -0.35969016 -0.15267645 -0.42956576 0.52149767 -0.31806785 -0.16211443 0.3442337
0.043857347 -0.51745737 0.57200366 0.26926598 0.017216088 -0.24760622 -0.015503272 -0.3763042
0.4270925 -0.2786829 -0.45689043 -0.47862554 -0.36705557 -0.18043607 -0.19010521 0.025199605
-0.17408536 -0.264949 -0.3614612 0.12744907 0.37152883 -0.17164151 0.41513786 -0.1937594
-0.14629552 -0.38204205 0.32459536 0.27978224 -0.24150741 -0.43418694 -0.263513 0.059165016
-0.25562266 0.29257452 -0.15882544 0.29535687 0.32306114 -0.19980139 0.38578355 0.32673204
-0.0248937 -0.2030433 -0.23587084 0.06678008 -0.27680245 0.07329141 -0.31626412 -0.18908654
0.29926983 -0.34168082 -0.07627138 0.27037147 -0.38810247 -0.29911745 -0.006673449 -0.2805537
-0.1848875 -0.22536421 0.34554607 0.14322348 -0.20894587 0.069911696 -0.37445652 -0.2884003
-0.1425056 -0.5247568 -0.22773431 0.11400926 0.37425748 -0.2015966 0.10226303 -0.35709953
-0.14607881 -0.21309619 -0.19644618 0.4575506 -0.43175617 0.2855368 -0.18734123 -0.31375316
0.14550698 -0.36757413 0.32075006 0.3072286 -0.29211727 -0.2548837 -0.106296845 -0.118605725
0.15956767 -0.2289971 -0.25539118 0.31277397 -0.19301595 0.16395892 0.13230266 -0.12960587
0.34820238 0.3983795 -0.27351913 0.033948217 0.3488693 0.4659294 0.29436198 -0.28783882
0.3029514 -0.33940548 -0.42843068 -0.3400707 -0.3465289 -0.25157067 0.14859718 -0.2281033
-0.32021654 -0.21639448 0.60601383 0.0044989837 0.19837375 0.28656277 -0.38173094 -0.16527858
-0.33977765 0.31941006 0.054667354 -0.24163286 -0.43696615 -0.18433066 0.28543305 0.036087487
0.3062755 0.33367792 -0.20155837 0.24620904 0.2050945 0.25061968 0.23563005 0.23210664
0.28115818 0.33706358 0.17688806 -0.3509859 -0.23858595 -0.2120975 0.2800277 -0.21954948
-0.2112417 -0.04547074 -0.23310266 -0.1765767 -0.27800483 -0.070805416 -0.15075041 -0.2651785
-0.42833516 0.33003566 0.24384277 -0.2948001 0.27757883 -0.3558077 -0.22671725 -0.18513921
0.29847658 -0.19561754 -0.12097324 0.21056288 0.21277562 0.14132014 0.0075249644 -0.32132336
-0.46216992 0.2694542 0.32776102 -0.38056794 -0.2801135 -0.24862315 0.31906292 -0.32528347
-0.26476347 0.42077973 -0.0014984972 -0.19834238 -0.28781053 -0.37755665 -0.2946527 -0.20434153
0.27070996 0.25288302 0.026295131 0.3548894 -0.30206394 -0.3132026 -0.24384646 -0.14634982
-0.3064019 -0.23158455 -0.09434868 0.15486099 -0.30603313 0.33062148 0.18220195 0.15671872
0.37868702 -0.32751378 0.30844748 -0.31598172 -0.14464293 0.36999765 0.3231835 -0.21847396
0.2282654 -0.2952294 -0.31121343 -0.10213292 0.06698143 0.30358976 0.17086343 0.4093519
-0.24699971 -0.15760876 0.15020715 0.0072619645 0.11593152 0.16437192 -0.25874943 -0.16732477
00000000: d93e c8be b5d1 c1be 9dc4 2bbe cd95 febe
00000010: 5d5e cd3e ef83 31be b6e5 c1be 636c 9cbe
00000020: ad54 09be 1dfe 29be c24d 803d 0440 93be
00000030: 11e1 d8bd bb53 953e bb2a cc3e 7c38 4f3e
00000040: 72e0 abbe 434c 76be 7f51 48be 1f53 bf3e
00000050: 5e15 333c 646e 9e3e ab10 96be d6d3 ecbd
00000060: aca5 c83e 4f29 b8be 3757 1cbe 0bf0 dbbe
00000070: df80 053f cad9 a2be 5301 26be 663f b03e
00000080: c3a3 333d 1678 04bf d56e 123f 3bdd 893e
00000090: c108 8d3c 7c8c 7dbe 7001 7ebc f2aa c0be
000000a0: deab da3e 86af 8ebe 8bed e9be 680e f5be
000000b0: b5ee bbbe 3cc4 38be f1aa 42be 676f ce3c
000000c0: 6f43 32be 65a7 87be 7111 b9be 0282 023e
000000d0: 0739 be3e cbc2 2fbe f38c d43e dd68 46be
000000e0: 7ece 15be 049b c3be 5d31 a63e 9e3f 8f3e
000000f0: b84d 77be c04d debe 2deb 86be 0457 723d
00000100: f9e0 82be 54cc 953e 23a3 22be 0439 973e
00000110: 4568 a53e bc98 4cbe 6c85 c53e 6c49 a73e
00000120: dfed cbbc 95ea 4fbe 2088 71be ffc3 883d
00000130: 0db9 8dbe cf19 963d 5fed a1be e79f 41be
00000140: e539 993e caf0 aebe 2b34 9cbd 216e 8a3e
00000150: 5eb5 c6be ec25 99be f3ac dabb bca4 8fbe
00000160: 2653 3dbe e0c5 66be 6aeb b03e 2da9 123e
00000170: e8f5 55be dd2d 8f3d c4b8 bfbe 34a9 93be
00000180: fdec 11be 7656 06bf 2f33 69be b07d e93d
00000190: ad9e bf3e 576f 4ebe 486f d13d c0d5 b6be
000001a0: af95 15be e335 5abe 3029 49be 1244 ea3e
000001b0: 250f ddbe e131 923e 61d6 3fbe 41a4 a0be
000001c0: c8ff 143e ad32 bcbe 5a39 a43e 114d 9d3e
000001d0: 6590 95be 1e80 82be 29b2 d9bd 8fe7 f2bd
000001e0: b565 233e 377e 6abe a2c2 82be e923 a03e
000001f0: f9a5 45be d9e4 273e 597a 073e 67b7 04be
00000200: 9547 b23e 66f8 cb3e b30a 8cbe 490d 0b3d
00000210: ff9e b23e 4c8e ee3e 9db6 963e 9c5f 93be
00000220: 721c 9b3e 8ec6 adbe 445b dbbe bf1d aebe
00000230: 3c6c b1be dfcd 80be dc29 183e e993 69be
00000240: 6cf3 a3be 8496 5dbe b923 1b3f 366c 933b
00000250: 7d22 4b3e 5bb8 923e 3d72 c3be ca3e 29be
00000260: 56f7 adbe b789 a33e e0ea 5f3d 9b6e 77be
00000270: 07ba dfbe 2dc1 3cbe 4824 923e 79d0 133d
00000280: 24d0 9c3e d5d7 aa3e 5165 4ebe 391e 7c3e
00000290: 4b04 523e 3951 803e 0149 713e 5dad 6d3e
000002a0: f7f3 8f3e 9993 ac3e 2522 353e 6db4 b3be
000002b0: e04f 74be 1630 59be ca5f 8f3e 94d1 60be
000002c0: bf4f 58be 873f 3abd 77b2 6ebe 86d0 34be
000002d0: a656 8ebe 6e02 91bd 515e 1abe 7ac5 87be
000002e0: bf4e dbbe 6ffa a83e ebb1 793e 0af0 96be
000002f0: d01e 8e3e 6d2c b6be 9128 68be 2295 3dbe
00000300: ecd1 983e f74f 48be d1c0 f7bd cc9d 573e
00000310: dae1 593e 3ab6 103e fa93 f63b 7f84 a4be
00000320: 89a1 ecbe e7f5 893e 4bd0 a73e cdd9 c2be
00000330: 096b 8fbe 1197 7ebe 375c a33e 8e8b a6be
00000340: 148f 87be 7170 d73e 3969 c4ba 441a 4bbe
00000350: e75b 93be 1b4f c1be b8dc 96be e83e 51be
00000360: 7f9a 8a3e e279 813e e368 d73c 10b4 b53e
00000370: 20a8 9abe 175c a0be e3b2 79be badc 15be
00000380: b6e0 9cbe 8024 6dbe e139 c1bd e193 1e3e
00000390: 60b0 9cbe 3847 a93e 2693 3a3e df7a 203e
000003a0: 44e3 c13e e3af a7be d4ec 9d3e 5bc8 a1be
000003b0: 471d 14be 5570 bd3e 4f78 a53e a3b7 5fbe
000003c0: 68be 693e 4f28 97be 5e57 9fbe 102b d1bd
000003d0: 8f2d 893d 1e70 9b3e d3f6 2e3e 9296 d13e
000003e0: 7eed 7cbe 3164 21be e7cf 193e c6f5 ed3b
000003f0: 816d ed3d 1d51 283e ce7a 84be 2f57 2bbe

sequential_25/conv2d_75/Conv2D f4 [32, 3, 3, 1]
-0.03486768 0.012857959 -0.040713258 0.0894538 0.0358164 -0.026437791 -0.07209289 0.027172742
0.07042545 0.06590318 0.018333137 0.02629571 0.00091712805 0.06250659 -0.013362519 0.026444657
0.005694412 0.017386623 0.0014266653 0.01818327 -0.017997384 -0.015867215 0.09611076 0.051826667
-0.10796341 -0.050267383 -0.11266533 -0.015415285 -0.010346437 -0.02605766 0.0027867777 0.005373821
0.06392599 -0.071095616 0.006243813 -0.05326571 -0.03699069 0.06363172 -0.035041798 -0.091873966
0.1417157 -0.048127823 -0.034049414 -0.12723829 -0.10573532 -0.12230763 -0.10244371 0.003230777
0.0252513 0.11374705 0.010834732 0.038101286 0.0092115775 -0.033822056 0.01162985 0.0636814
-0.024767857 -0.049163662 -0.17018315 -0.08308249 -0.10816159 0.10590051 0.029652067 0.023152934
-0.08356395 0.034678627 -0.04242037 -0.16321848 0.05260087 -0.18872546 -0.10647108 0.022002466
-0.03065932 -0.073694214 0.021552913 -0.0394565 -0.062213507 -0.012866736 -0.0039093737 -0.14981668
-0.1187393 0.04087697 0.031113397 -0.08566506 0.056081027 -0.0042566736 -0.1434842 0.047531348
-0.099585705 -0.17652912 -0.046235166 0.0768629 0.06286826 -0.16182104 0.08193474 0.033141952
-0.07018262 -0.08757797 -0.14517672 0.0012953279 -0.061759908 -0.10388796 0.08273456 0.04131694
-0.082035795 0.010864436 0.07850966 -0.12157922 0.046795554 0.01138089 0.028355975 0.11824188
0.013613557 0.06271455 0.021390798 0.10199619 0.031555306 0.05597801 -0.013799685 0.019996613
-0.11244996 -0.087842725 -0.089098595 0.054258715 0.086205706 0.06973221 -0.061667826 -0.061245155
0.07093616 0.027658217 -0.14505534 -0.03826862 0.12525158 -0.005628382 -0.1672669 -0.017781813
0.057885416 -0.012756596 -0.12578213 0.15558274 -0.042368874 0.09693535 -0.038124785 -0.018923782
0.10873037 -0.1215011 0.03252269 0.056319557 -0.058828905 0.09112753 0.017908784 -0.011243737
0.0041129724 -0.004103927 0.045910295 0.0021585736 0.105584376 -0.038464926 -0.07593414 -0.094556995
-0.051416863 0.026946312 -0.07590535 0.05003088 0.03748446 -0.17272912 -0.04692098 0.08457651
0.050541386 -0.120150216 0.036609694 -0.02510114 -0.011773858 0.10632836 -0.0069789225 -0.09193844
-0.05565198 0.028309986 -0.028550675 0.03872414 0.00886153 -0.020957159 0.010673409 -0.05972128
0.11540751 -0.11214887 -0.0020563158 -0.05429848 -0.00448612 -0.103234276 -0.1726105 -0.054347813
0.051002525 0.07326994 -0.10514777 -0.009609512 0.053379983 0.012226317 0.03304403 -0.0564816
-0.12174065 -0.007438697 -0.12866338 0.044535726 -0.0954382 -0.019070705 0.11076729 0.004850876
-0.11872174 -0.05842754 -0.08414756 -0.100410454 0.20428123 -0.0036412212 -0.09809353 -0.10569823
-0.027900271 -0.103464976 -0.07047702 -0.14453477 0.058851425 0.103863955 -0.05742373 0.08494991
-0.026644409 -0.090217955 -0.06636949 -0.02748335 0.118187666 -0.0048339893 -0.031225756 -0.0100314645
-0.067957185 0.0011068464 -0.04108068 0.08041156 0.069420904 0.08288746 -0.037856065 -0.07276113
0.026594868 -0.029980654 0.11947556 -0.01877606 -0.079208516 -0.08800015 -0.030523065 0.11364468
-0.06918443 0.046786603 -0.016893974 0.0050895875 -0.054976214 -0.04581223 -0.152261 0.07626214
00000000: 6ad1 0ebd 30aa 523c f2c2 26bd 8e33 b73d
00000010: 38b4 123d 1194 d8bc 70a5 93bd 5f99 de3c
00000020: 383b 903d 3ff8 863d 602f 963c 1a6a d73c
00000030: 6c6b 703a 7403 803d 78ee 5abc 77a2 d83c
00000040: 3198 ba3b 646e 8e3c f2fe ba3a 15f5 943c
00000050: 406f 93bc f6fb 81bc b8d5 c43d 3348 543d
00000060: ec1b ddbd 2ce5 4dbd 15bd e6bd 6490 7cbc
00000070: 1a84 29bc e076 d5bc 5fa2 363b e116 b03b
00000080: a1eb 823d 949a 91bd e698 cc3b 252d 5abd
00000090: 8d83 17bd 5951 823d fd87 0fbd 6b28 bcbd
000000a0: ec1d 113e ae21 45bd 6677 0bbd c14a 02be
000000b0: c28b d8bd 6c7c fabd 02ce d1bd 72bb 533b
000000c0: d0db ce3c 37f4 e83d 2984 313c 1810 1c3d
000000d0: 28ec 163c ff88 0abd 208b 3e3c 656b 823d
000000e0: f6e5 cabc d65f 49bd 7e44 2ebe 2727 aabd
000000f0: d383 ddbd 5ee2 d83d e4e8 f23c 39ab bd3c
00000100: 9423 abbd 2d0b 0e3d fbc0 2dbd bf22 27be
00000110: 0374 573d 3f41 41be 820d dabd 843e b43c
00000120: 4129 fbbc feec 96bd bc8f b03c 249d 21bd
00000130: 97d3 7ebd 01cf 52bc 341a 80bb 8b69 19be
00000140: 972d f3bd 9c6e 273d 86e1 fe3c 2a71 afbd
00000150: 38b5 653d 917b 8bbb 86ed 12be 3bb0 423d
00000160: 97f3 cbbd 0dc4 34be 1661 3dbd 4c6a 9d3d
00000170: 13c1 803d 6ab4 25be 67cd a73d dbbf 073d
00000180: e8bb 8fbd 145c b3bd 35a9 14be fec7 a93a
00000190: f5f7 7cbd 36c3 d4bd bd70 a93d f43b 293d
000001a0: 6202 a8bd bf00 323c acc9 a03d 87fe f8bd
000001b0: b2ac 3f3d ea76 3a3c ca4a e83c cc28 f23d
000001c0: 660b 5f3c 7c70 803d c13b af3c 61e3 d03d
000001d0: 2340 013d 3349 653d 1318 62bc f0cf a33c
000001e0: 2a4c e6bd e3e6 b3bd 5379 b6bd 633e 5e3d
000001f0: 9e8c b03d c3cf 8e3d 6797 7cbd 33dc 7abd
00000200: fa46 913d 7c93 e23c 6389 14be 8ebf 1cbd
00000210: f341 003e 4a6e b8bb 0448 2bbe 2aab 91bc
00000220: 4219 6d3d 0b01 51bc 08cd 00be 1551 1f3e
00000230: fc8a 2dbd 0a86 c63d bc28 1cbd 0c06 9bbc
00000240: 07ae de3d 92d5 f8bd 8336 053d 56af 663d
00000250: 94f6 70bd 12a1 ba3d 71b5 923c a737 38bc
00000260: 1dc6 863b 3c7a 86bb 6f0c 3c3d db76 0d3b
00000270: 9f3c d83d 668d 1dbd 5c83 9bbd 19a7 c1bd
00000280: 7d9a 52bd 83be dc3c 4474 9bbd 2eed 4c3d
00000290: 4e89 193d e7df 30be 3730 40bd 7336 ad3d
000002a0: 7c04 4f3d 5111 f6bd 0cf4 153d e8a0 cdbc
000002b0: 24e7 40bc afc2 d93d 72af e4bb 394a bcbd
000002c0: 55f3 63bd 58ea e73c 1be3 e9bc 349d 1e3d
000002d0: f32f 113c 59ae abbc 86df 2e3c 4d9e 74bd
000002e0: c65a ec3d 4fae e5bd 41c3 06bb 1568 5ebd
000002f0: 4d00 93bb 7e6c d3bd cfc0 30be d09b 5ebd
00000300: 06e8 503d 8d0e 963d b757 d7bd 3771 1dbc
00000310: f8a4 5a3d e450 483c 2d59 073d 4059 67bd
00000320: 2953 f9bd 50c0 f3bb 55c0 03be 186b 363d
00000330: 1a75 c3bd 2b3a 9cbc f6d9 e23d 19f4 9e3b
00000340: 6224 f3bd b751 6fbd 8e55 acbd ffa3 cdbd
00000350: 192f 513e 8ea1 6ebb 43e5 c8bd 5078 d8bd
00000360: 1c8f e4bc 72e5 d3bd 4256 90bd ec00 14be
00000370: 310e 713d a0b6 d43d 2535 6bbd 38fa ad3d
00000380: 6045 dabc 31c4 b8bd baec 87bd c324 e1bc
00000390: 600c f23d 7166 9ebb 28cd ffbc 035b 24bc
000003a0: 232d 8bbd 9a13 913a 3744 28bd d1ae a43d
000003b0: 8c2c 8e3d e7c0 a93d f60e 1bbd ca03 95bd
000003c0: 7bdd d93c fd99 f5bc 9aaf f43d 40d0 99bc
000003d0: 1338 a2bd 6c39 b4bd 820b fabc 8bbe e83d
000003e0: 91b0 8dbd 4fa3 3f3d 3b65 8abc 8ec6 a63b
000003f0: bd2e 61bd 9ba5 3bbd 4fea 1bbe 532f 9c3d

sequential_25/conv2d_76/Conv2D f4 [64, 3, 3, 32]
-0.059795942 0.0029961276 0.09565098 0.022931274 0.10091857 0.020883154 -0.066773094 0.01575123
0.006185478 0.053818673 0.087577716 -0.093214184 -0.0870188 -0.054925863 0.033647865 0.04948524
0.02993531 -0.051196255 -0.08934408 -0.0063972836 0.14247246 -0.039182674 -0.18053421 -0.027149776
0.10041252 -0.11850038 0.020885225 0.067788206 -0.07752846 -0.06788287 -0.015884109 0.020641351
0.11264359 0.10988015 0.039263513 0.033829816 0.18707605 -0.023873508 0.03811757 -0.0044838293
0.1714451 0.04363135 -0.0027716772 -0.018295338 -0.045116644 -0.042667393 0.063100584 -0.037851095
0.18803595 -0.0774812 0.018757438 -0.0189899 0.16705275 0.04233392 -0.11238891 -0.030646345
-0.06173559 -0.031352866 0.09573529 0.12977289 -0.052627448 -0.018588705 -0.038941275 -0.023884283
0.03993219 -0.035856877 -0.103301875 -0.010102367 0.068380855 -0.049604807 -0.11712434 0.15768732
-0.048768535 0.032774694 0.072197266 0.09335475 0.019602476 0.07583848 0.1021891 0.08885622
0.08754002 -0.03967488 0.07575767 0.05786739 0.06399325 0.15125489 0.01218221 0.047419563
-0.04836716 -0.13553585 0.020678962 0.048452895 0.142038 0.021252465 0.031108096 -0.06998125
0.012994246 0.017157175 -0.089395426 -0.05637284 -0.043255728 0.0123775955 -0.05170488 -0.010828026
0.014491321 0.042148635 -0.105823904 0.068801306 0.051958323 -0.008322908 0.15734689 0.08174623
-0.028446654 -0.03056308 -0.09825164 -0.04861614 0.036012802 0.011733689 -0.06034871 -0.15007629
-0.0042987573 0.017799739 0.025532546 0.07684734 0.024373276 0.040163033 0.005887148 -0.053886708
-0.041327246 -0.023564901 0.047505464 -0.006036935 0.11994013 -0.07112151 -0.04592032 0.0015353793
-0.043415625 -0.14755565 0.023307648 -0.0101338085 -0.035691276 -0.0463434 0.12430254 -0.024909828
0.013006336 -0.14244027 -0.041814953 -0.016141895 0.050100558 -0.028281024 -0.063018 -0.18713613
-0.20586394 -0.04885557 -0.07103385 0.061013605 -0.034836262 -0.06694386 -0.065656684 -0.044456948
0.04285872 0.004733423 0.010879507 0.023339259 0.04493032 -0.11850435 -0.0971131 -0.015128833
0.06137152 -0.0793287 0.018504227 -0.16533418 -0.033268515 -0.13980456 0.10165523 -0.12015943
-0.03567799 -0.076604694 0.031433046 0.08551198 0.1184575 -0.09135231 -0.122679286 -0.035919324
-0.23239994 0.11449867 -0.07740641 -0.083208196 0.049621295 0.026171854 0.009224009 0.065739594
0.024646582 -0.04338051 0.004132921 -0.03833059 0.010143612 -0.07342093 -0.12491732 0.0024009312
0.081518166 0.0008814571 0.08365733 -0.0250875 0.019429289 -0.09978949 0.08919747 -0.14763267
0.08943412 0.0444944 0.1072263 0.012638661 0.052017186 0.052175637 -0.06392095 -0.009109096
-0.19378483 -0.0013952729 -0.040007133 -0.07653463 0.079088055 0.13189115 0.04592826 0.09887315
0.016814202 0.03696755 -0.14205557 -0.0052493433 -0.017485028 -0.02086321 -0.18193737 -0.04881087
0.054403376 -0.15086718 -0.193392 0.09768495 -0.051783036 -0.07231055 -0.066579014 -0.030893866
0.021864427 -0.14396821 0.0010099189 -0.008511189 0.04817562 0.072077155 0.031991933 -0.032318227
-0.18724917 -0.061814558 0.0137389125 0.08304938 -0.0317073 0.03045619 0.06510073 -0.07135375
00000000: 97ec 74bd ae5a 443b a9e4 c33d 5eda bb3c
00000010: 65ae ce3d 2613 ab3c 55c0 88bd b908 813c
00000020: 8daf ca3b f870 5c3d f25b b33d 14e7 bebd
00000030: ea36 b2bd f1f9 60bd 58d2 093d 09b1 4a3d
00000040: e53a f53c 2ab3 51bd 07fa b6bd 4ea0 d1bb
00000050: 4de4 113e 037e 20bd f6dd 38be 3569 debc
00000060: 14a5 cd3d 54b0 f2bd 7e17 ab3c 8bd4 8a3d
00000070: 3ec7 9ebd 2d06 8bbd 641f 82bc 0d18 a93c
00000080: afb1 e63d d808 e13d c7d2 203d 2291 0a3d
00000090: dd90 3f3e 6092 c3bc 2b21 1c3d 16ed 92bb
000000a0: 4e8f 2f3e c9b6 323d 07a5 35bb 1be0 95bc
000000b0: 3bcc 38bd 01c4 2ebd e13a 813d c009 1bbd
000000c0: 7f8c 403e 77ae 9ebd 33a9 993c b590 9bbc
000000d0: e00f 2b3e 5566 2d3d 282c e6bd 0b0e fbbc
000000e0: 75de 7cbd dd6b 00bd dd10 c43d 2fe3 043e
000000f0: e18f 57bd 5747 98bc e380 1fbd f9a8 c3bc
00000100: f08f 233d a9de 12bd ef8f d3bd 6684 25bc
00000110: 430b 8c3d 692e 4bbd e3de efbd c978 213e
00000120: 84c1 47bd c23e 063d 29dc 933d c630 bf3d
00000130: 5f95 a03c 3451 9b3d 8548 d13d 40fa b53d
00000140: 2f48 b33d 2182 22bd d626 9b3d 5b06 6d3d
00000150: e50e 833d 90e2 1a3e e497 473c 043b 423d
00000160: a51c 46bd e9c9 0abe ed66 a93c 8b76 463d
00000170: 6972 113e a619 ae3c 68d6 fe3c 5452 8fbd
00000180: d1e5 543c 348d 8c3c f314 b7bd 35e7 66bd
00000190: eb2c 31bd 66cb 4a3c 7fc8 53bd 0868 31bc
000001a0: 016d 6d3c 0ca4 2c3d 34ba d8bd b3e7 8c3d
000001b0: 40d2 543d ce5c 08bc 8b1f 213e 916a a73d
000001c0: f508 e9bc 6d5f fabc 2838 c9bd b821 47bd
000001d0: 2982 133d a93e 403c 3530 77bd 99ad 19be
000001e0: 97dc 8cbb c2d0 913c a129 d13c 2362 9d3d
000001f0: 77aa c73c fe81 243d fae8 c03b 4fb8 5cbd
00000200: c246 29bd 2e0b c1bc 1795 423d 7bd1 c5bb
00000210: 2ca3 f53d 27a8 91bd f216 3cbd c83e c93a
00000220: 95d4 31bd d418 17be aeef be3c 4608 26bc
00000230: 0431 12bd 94d2 3dbd 5592 fe3d b20f ccbc
00000240: 8718 553c dddb 11be 2846 2bbd 023c 84bc
00000250: 3e36 4d3d 9bad e7bc 950f 81bd 9da0 3fbe
00000260: ffcd 52be c71c 48bd 327a 91bd 67e9 793d
00000270: 78b0 0ebd dd19 89bd 0377 86bd 7d18 36bd
00000280: a08c 2f3d d41a 9b3b f63f 323c f931 bf3c
00000290: db08 383d 69b2 f2bd 3ce3 c6bd edde 77bc
000002a0: b460 7b3d 1677 a2bd 2d96 973c 5d4d 29be
000002b0: 9144 08bd ed28 0fbe 9e30 d03d 2616 f6bd
000002c0: 1623 12bd ece2 9cbd f0bf 003d e820 af3d
000002d0: d999 f23d eb16 bbbd 473f fbbd 2420 13bd
000002e0: 40fa 6dbe 477e ea3d 4087 9ebd 0f69 aabd
000002f0: b33f 4b3d 5b66 d63c 4c20 173c 7ba2 863d
00000300: a1e7 c93c c3af 31bd 746d 873b 8900 1dbd
00000310: 6431 263c b65d 96bd a7d4 ffbd f158 1d3b
00000320: fff2 a63d 9611 673a 8954 ab3d 4d84 cdbc
00000330: 2c2a 9f3c 6f5e ccbd 2aad b63d 052d 17be
00000340: 3c29 b73d c33f 363d 7699 db3d 6312 4f3c
00000350: f90f 553d 1fb6 553d fde8 82bd 513e 15bc
00000360: 886f 46be 97e1 b6ba 85de 23bd 30be 9cbd
00000370: ebf8 a13d 790e 073e 451f 3c3d 027e ca3d
00000380: f0bd 893c 496b 173d 0477 11be af02 acbb
00000390: c33c 8fbc 53e9 aabc ca4d 3abe e8ed 47bd
000003a0: 13d6 5e3d ed7c 1abe 8d08 46be 0c0f c83d
000003b0: 731a 54bd 8e17 94bd 945a 88bd 2215 fdbc
000003c0: 071d b33c 676c 13be 415f 843a 8472 0bbc
000003d0: cd53 453d 309d 933d f909 033d 1e60 04bd
000003e0: 3fbe 3fbe 4331 7dbd 2d19 613c cb15 aa3d
000003f0: 84df 01bd 437f f93c 8853 853d ea21 92bd
