Individual Model/Arabic Number Recognition/Saved Model Number/model_digit_with_metadata.tflite (tflite, 528806 bytes, 18 tensors)

sequential_1/conv2d_3/BiasAdd/ReadVariableOp/resource f4 [32]
00000000: 03be 863d 0eaf 3f3c 215c aa3c e08b 053d
00000010: 2aa1 0e3b d73b 043b 343f 9cbd 5821 3f3d
00000020: ba70 04bd 3b55 dfbc 30df 5fbc bae0 d4bc
00000030: e442 b33c 2f67 663c f3d5 93bd e0a5 81bd
00000040: eef6 2abc 2dda 363d 1c4f 823c ef7c d7bb
00000050: b1ae a33c a4a4 e0bc a8b5 89bc 4026 5bbc
00000060: a5a4 cb3c e1cc 253d 98c2 0dbc d536 19bb
00000070: d233 903c 87f7 17bd 000d 08bd a64e 21bd
0.065792106 0.011699451 0.020795884 0.0326041 0.0021763542 0.002017727 -0.076292425 0.04666266
-0.032334067 -0.02726232 -0.013664052 -0.025986064 0.021882482 0.014062687 -0.07218542 -0.06330466
-0.010434849 0.044641662 0.015906863 -0.0065761725 0.01998076 -0.027422257 -0.016810253 -0.013375819
0.024858782 0.04047859 -0.008652352 -0.002337863 0.017602835 -0.037101295 -0.033215523 -0.039381646

sequential_1/conv2d_4/BiasAdd/ReadVariableOp/resource f4 [64]
00000000: 79a4 9bbd 79c3 d9bd 0350 14be ce30 3cbe
00000010: 21c3 b8bd 1a38 04be 23b2 43be baaf c5bd
00000020: 8e28 34be 8c66 5abe 1b3b a8bd abef 0bbe
00000030: 1cb3 9fbd 1064 c6bd 0ac6 83bd 58fa 4dbe
00000040: 8e3b 9f3c b70d 1bbe 0796 eabd 3f63 50be
00000050: e09f 03be a567 0fbe b104 a7bd 04ac 16be
00000060: dcfb 9dbb d70a c5bd 5dd7 e0bd 4e98 53be
00000070: 952b e0bd 40c9 e7bd 86e1 24be e384 14be
00000080: 71d7 3ebd f225 78bd 864f 62bd d5a9 28be
00000090: 81c1 20be febc 04be 7526 c9bd 6c10 f9bd
000000a0: 8879 083d dd07 2ebe 4a55 6bbd 953a 09be
000000b0: bd0a 23bd 5fcf d9bd 8618 8fbd 33aa 1abe
000000c0: 85c6 46bd 8c5e 06be a027 f1bd a021 81bd
000000d0: 2286 61bd 1927 863c fd74 a8bd 93d8 21bd
000000e0: f061 cfbd 4bda 58be 3dc0 8abe ff8d 9ebd
000000f0: ae52 8bbd b7f7 01be 2476 9fbd 72ec 73bd
-0.0759973 -0.106329866 -0.14483647 -0.18377993 -0.09021593 -0.12912026 -0.19110923 -0.09652658
-0.17593595 -0.21328181 -0.082143985 -0.13665645 -0.07797834 -0.09687054 -0.06434257 -0.2011503
0.019437578 -0.1514195 -0.11454397 -0.2035036 -0.12853956 -0.14004381 -0.08155192 -0.14714056
-0.0048212837 -0.09621208 -0.10978577 -0.20663568 -0.109458126 -0.11317682 -0.16101655 -0.14503817
-0.04659218 -0.060583062 -0.05525162 -0.16471036 -0.15698816 -0.1296272 -0.09821788 -0.12161335
0.033319026 -0.16995187 -0.057454385 -0.13401254 -0.039805163 -0.10635256 -0.06987099 -0.15103988
-0.048529167 -0.13122004 -0.11775136 -0.063052416 -0.05505956 0.016376065 -0.08225439 -0.039513182
-0.10126102 -0.21177022 -0.2709979 -0.07741927 -0.06802879 -0.12692152 -0.077862054 -0.059551664

sequential_1/conv2d_5/BiasAdd/ReadVariableOp/resource f4 [128]
00000000: d2b9 c9bd c165 0cbe 0971 06be 5cb1 00be
00000010: 7db7 2fbe 6a56 17be a69f 81be b15a 37be
00000020: 9517 90be fe54 3fbe 1f35 d3bd b4b0 2dbe
00000030: 53c2 91be 9974 41be 86bc 8abe bf49 87be
00000040: 6281 6fbe 609b 44be 5d0a 5abe a1d1 5abe
00000050: db44 99be 67ca 23be 7cff 85be 2ec8 75bd
00000060: 4c53 d4bd 2104 2cbe cef6 31be 1305 33be
00000070: 556c 9bbe 3909 d8bd 1bb9 ddbd 4233 5abe
00000080: f1c3 d3bd 7273 c1bd 0777 16be a4e3 08be
00000090: 1da6 52be 72df 5abe dbfd 86bd ad2f 92be
000000a0: 5bc9 57be 7726 23be c6e4 03be ea22 8cbe
000000b0: 4e74 a7be 5536 0abe a80f 35be 4bf0 18be
000000c0: a1dd 83be e1fc 4cbe cc53 83be 7ed9 8abd
000000d0: 7694 febd d149 04be 8760 64be dc3c 35be
000000e0: 6ea6 71bc 3ef7 9bbe 8cb5 30be bb01 5abe
000000f0: ce29 66be 3f1b eabd a356 53be 1fc6 73be
00000100: bbb3 fcbd 9d67 9abe a9fc 60be 4c59 3ebe
00000110: 1938 59be f6c6 39be e362 53be ba0f 8bbe
00000120: d7a8 9bbe ee4c 6cbe 83c0 66be 43f8 86bd
00000130: eabb 8abe 2a80 d0bd 1d40 2fbe caa9 0cbe
00000140: 04a1 e5bd d30a 96be 245c 7bbe 9b05 48be
00000150: fd66 38be f3c3 15be a352 94be b71a 51bd
00000160: f012 47be 5754 81be 2677 72be f8fd 58be
00000170: 4564 33be 59f8 18be d833 b5be 4228 ccbd
00000180: 3e70 88be eed2 56be 232b 5dbe 5a31 2cbe
00000190: 6664 77be 130c 5cbe 866a 9ebd fa44 2dbe
000001a0: 66dd 05be 991a 95be 344a 81be b2f6 a1bd
000001b0: f98e 4dbe 662a c4bd 6351 b1bd 82fd 69be
000001c0: 8970 40be b6cc 20be 9cd7 48be 9eb3 7dbd
000001d0: ef42 99be 7632 5ebe 4801 debd f287 17be
000001e0: 612f 6abe af4f a3bc 33b8 13be 9f1f 4cbe
000001f0: 696b f7bd 518e acbd d211 06be f4f2 2dbe
-0.098498955 -0.13710691 -0.13129057 -0.12567657 -0.17159839 -0.14779058 -0.25317115 -0.1790569
-0.28142992 -0.18684766 -0.103128664 -0.16961938 -0.2846857 -0.18892135 -0.27096957 -0.2642345
-0.233892 -0.19199896 -0.21293016 -0.2136903 -0.29935345 -0.15995179 -0.26171482 -0.06000536
-0.1036745 -0.1679845 -0.17379305 -0.17482404 -0.30356088 -0.10548634 -0.10826322 -0.21308616
-0.10340107 -0.094458476 -0.14693843 -0.13368088 -0.2057118 -0.213743 -0.06591388 -0.28552
-0.21072905 -0.15932642 -0.12880239 -0.27370387 -0.3270592 -0.13497289 -0.17681754 -0.14935414
-0.25755027 -0.2001834 -0.2564987 -0.067797646 -0.124306604 -0.12918784 -0.22302447 -0.17698997
-0.014749153 -0.30462068 -0.17256755 -0.21289723 -0.22476885 -0.11430978 -0.20638518 -0.23806046
-0.12338968 -0.30157176 -0.21971382 -0.18588752 -0.21212806 -0.18142304 -0.20643191 -0.27160436
-0.30402252 -0.23076221 -0.22534375 -0.06590321 -0.27096492 -0.10180695 -0.17114301 -0.13736644
-0.11212352 -0.29305133 -0.24546868 -0.19533388 -0.18008037 -0.1462553 -0.28969297 -0.051050868
-0.19440818 -0.2525966 -0.23678264 -0.21190631 -0.17518719 -0.14938487 -0.35391116 -0.09968616
-0.26648134 -0.20978901 -0.21598487 -0.16815701 -0.24159393 -0.21488981 -0.077351615 -0.16920844
-0.13072738 -0.29121855 -0.25251925 -0.079083815 -0.20074071 -0.09578399 -0.086581014 -0.22850612
-0.18792929 -0.15703091 -0.19613498 -0.061938874 -0.2993388 -0.21698937 -0.10840088 -0.14797953
-0.22869636 -0.019935457 -0.14425735 -0.19933937 -0.12081034 -0.08425582 -0.13092735 -0.1698721

sequential_1/dense_2/BiasAdd/ReadVariableOp/resource f4 [32]
00000000: 6fd2 9b3e 851a da3e cf36 903e 4a62 8c3e
00000010: bbbf 7e3e 7cb0 973e e5e1 cf3e cc57 af3e
00000020: 12ba 283e ac75 5a3e bad6 5a3e 0682 8d3e
00000030: 312a c83e cfbe 383e 2f93 5f3e a33a d73e
00000040: e868 8c3e 051a b73e c60c cc3e 6205 bd3e
00000050: 98e2 d23e 3488 ba3e 7e9c a13e bf4b ac3e
00000060: a717 1a3e 8cbe 0d3e 0984 d23e 0b94 773e
00000070: 3d37 c93e a5e9 9c3e 799b 783e 4fc4 9c3e
0.30433986 0.42598358 0.28166816 0.2741874 0.24877827 0.29626834 0.4060203 0.3424667
0.1647723 0.21333951 0.21370974 0.27638263 0.3909469 0.18041538 0.2183349 0.42036924
0.27423787 0.3576204 0.39853495 0.3691817 0.41188502 0.3643204 0.31564707 0.3365154
0.15048085 0.13842219 0.4111636 0.24177568 0.39299956 0.30647007 0.24278058 0.30618522

sequential_1/dense_3/BiasAdd/ReadVariableOp/resource f4 [10]
00000000: 03b8 b13d 6511 1b3d 61ed 1dbd f59f 96bd
00000010: b762 203d 7b58 173d b06b f0bd df7b 90bd
00000020: e0a2 24bc 4c27 c03c
0.086776756 0.037858386 -0.03855646 -0.07354728 0.03915664 0.036949616 -0.1173929 -0.070548765
-0.010048598 0.023456238

sequential_1/batch_normalization_4/FusedBatchNormV3 f4 [32]
00000000: 4aed a1bf 262d 17bf a436 4abf 8cf6 59bf
00000010: a488 f5be c260 40bf 40dd b83b f0ca 10bf
00000020: 1084 f53d 9151 0fbe e4e5 a1bd 0046 89bd
00000030: 10ef 4ebf f71e 2ebe 1a5e 1b3d 26c5 003d
00000040: 0442 8b3e d973 21bf 16c7 fdbe e034 bcbd
00000050: 422f 4fbf 0987 bbbe 9f60 bcbe 05c7 1f3e
00000060: 60dd 80be 062a 1dbf 0c49 15bd 570f 5cbe
00000070: bc69 1ebf 4acc 09bf dcf3 83be 939f 283e
-1.265054 -0.59053266 -0.78989625 -0.85141826 -0.4795581 -0.7514764 0.0056416094 -0.5655966
0.119880795 -0.13995959 -0.07905176 -0.067028046 -0.8083353 -0.17004 0.03793154 0.031438015
0.27198803 -0.63067394 -0.49565953 -0.091897726 -0.80931485 -0.3662646 -0.36792466 0.15603264
-0.25168896 -0.6139225 -0.036446616 -0.21490227 -0.6188009 -0.53827345 -0.25771987 0.16467123

sequential_1/batch_normalization_4/FusedBatchNormV31 f4 [32]
00000000: 7e8c 8341 c3e0 ce41 1b2b c241 2724 9541
00000010: 8fb5 7e41 5b34 9241 0f4f a741 f7a0 c640
00000020: 464d e041 9598 c541 cf97 7841 e202 6641
00000030: e654 b741 0270 c041 2ee9 0642 99c8 ce41
00000040: bab4 0242 3188 aa40 a44a d941 9cc3 bb41
00000050: 3cd3 7341 b351 db41 6bc6 ad41 de5a e441
00000060: 6fd3 0e42 fb87 c841 a4bc 9241 bd71 9b41
00000070: 8239 be41 2edc e441 39f8 7141 2f36 d641
16.4436 25.859747 24.271048 18.642653 15.919326 18.275564 20.913603 6.207149
28.037731 24.699503 15.537063 14.375704 22.916454 24.054691 33.727715 25.847948
32.67649 5.329125 27.161446 23.470512 15.239071 27.414892 21.721884 28.544369
35.70648 25.066397 18.34211 19.430536 23.77808 28.60751 15.123101 26.776457

sequential_1/batch_normalization_5/FusedBatchNormV3 f4 [64]
00000000: efd1 1bbe 12c5 7c3e a7fd a1be 0c31 043e
00000010: ed52 02bf e9a5 2cbe 6a56 86be de31 b9bd
00000020: 94d5 c73d 50dd 28be 6013 d4be 8837 31bd
00000030: 40cc 05bc 01e7 fdbe d0f8 0e3e 6571 08be
00000040: fcb9 7dbe 6b37 24be 3f3b 0ebf bfcf 013e
00000050: 54e1 eebe 8a8b ea3d 1a3e 63be 3473 febd
00000060: 78fa 3cbe f068 0ebd ecd8 553d dcd5 dbbd
00000070: d05f 9b3d aba0 74be b89b 6fbd d0e2 8a3c
00000080: d0dd 15be 40ba 663c a0af a0bc bff0 003e
00000090: 3290 b3bd b0c8 f93d d2e8 24be 2094 27bc
000000a0: c851 bf3d c8fc 8dbe cb2d e1be 0000 0fb8
000000b0: 81fc ffbe 0d58 9f3e d8f3 aabd 982f e83c
000000c0: 3661 dcbe e6ab 6a3e 44c6 c8bd 620c 2cbe
000000d0: d4e7 b1be 9afd c3be 7a21 ebbe 5eb7 67be
000000e0: a880 3ebd 0a8f ccbd 8e07 933e 4d5b d4be
000000f0: f87b 14be 224d 3d3e 38bf 37bd 3acf 66be
-0.15216802 0.24684551 -0.31638834 0.12909335 -0.50907785 -0.16860165 -0.26237804 -0.090427145
0.09757534 -0.16490674 -0.41421032 -0.04326585 -0.008166373 -0.49590304 0.13962102 -0.13324507
-0.24777979 -0.16036765 -0.5555915 0.12676905 -0.46656287 0.11452396 -0.22191659 -0.12424317
-0.18454921 -0.034768045 0.052208826 -0.1073415 0.07586634 -0.23889415 -0.058498114 0.016953856
-0.14635396 0.014082491 -0.019614995 0.12591837 -0.087677374 0.12196481 -0.16104439 -0.010228187
0.093417704 -0.2773192 -0.4398025 -3.4093857e-05 -0.49997333 0.31121865 -0.08347291 0.028343007
-0.43042916 0.22917137 -0.09803441 -0.16801599 -0.34747183 -0.3827942 -0.45923978 -0.22628543
-0.046509415 -0.0998822 0.287167 -0.41475907 -0.14500415 0.18486455 -0.044860095 -0.22539988

sequential_1/batch_normalization_5/FusedBatchNormV31 f4 [64]
00000000: 2676 743f 52e5 433f da17 393f 4d2f 913f
00000010: aa41 a83f f8c9 203f 91e5 0340 7770 cf3f
00000020: 484b 493f f0bc c63f 1740 a03f 0a34 883f
00000030: 0a7a 953f 39b4 953f 3abe d53f d431 7f3f
00000040: 8619 ec3e 74d1 593f 071e 773f e334 e23f
00000050: 916a 9d3f 0603 c53f a1d7 7f3f 2641 cd3f
00000060: 6315 0f3f 3d57 873f b04b c73f adeb b73f
00000070: e2d3 603f 3d5a 1840 62a6 743f 7ed8 3f3f
00000080: 6885 983f e18d 443f 3a4d 3d3f 4a79 eb3f
00000090: 08b9 8a3f 5beb 813f c839 033f 2e16 5c3f
000000a0: f3b1 283f 5d0b c23f 33cc 463f 9f66 963f
000000b0: 6dab 483f 9ea8 bf3f f156 953f ec5f 8e3f
000000c0: 3588 653f 9799 ac3f 45f2 b03f 17c1 523f
000000d0: f2e2 ab3e cf40 1b3f 0c74 8f3f 4c5c 083f
000000e0: 488f 2e3f 51ef b23f eea2 eb3f 1fa0 4a3f
000000f0: ddbf 053f 10dd a73f 2d64 4f3f 1dc7 7b3f
0.9549278 0.7652179 0.7230202 1.134256 1.3145039 0.6280818 2.0608866 1.6206197
0.78630495 1.5526409 1.2519559 1.0640881 1.1677868 1.1695625 1.6698678 0.99685407
0.46113223 0.85085225 0.96530193 1.767239 1.2298146 1.5391548 0.999384 1.6035507
0.5589201 1.0573498 1.5569973 1.4368798 0.8782331 2.3805077 0.9556638 0.74939716
1.1915712 0.7677899 0.73945963 1.839639 1.0837717 1.014995 0.5126004 0.85971344
0.6589653 1.5159718 0.77655333 1.1750067 0.78386575 1.4973333 1.1667157 1.1123023
0.8966096 1.3484372 1.3823935 0.8232588 0.33571583 0.60645765 1.120729 0.53265834
0.6818738 1.3979284 1.8409097 0.79150575 0.52245885 1.3114338 0.8101223 0.983507

sequential_1/batch_normalization_6/FusedBatchNormV3 f4 [128]
00000000: 4b43 4ebe 1f59 56be eb2f 07bf d678 24be
00000010: d910 0bbe e8e4 f8bd 301d 55be 430d acbe
00000020: 9cf5 a5bd 6019 3abe f91f e0be 18da a8bd
00000030: d27d 96bd e302 babe dde4 71be c0a3 3fbd
00000040: 3e44 0fbe 5c1f a8bd 36bc f7bd 3f55 c7be
00000050: 4e87 d4bd c8ee 5ebe 0008 ceba d79d 48bf
00000060: 50b7 36be 1823 35bd a3f6 7bbe 3e0f 2ebe
00000070: f41b b8be 7bd5 06bf 3895 07bf 4fe3 6cbe
00000080: 7e0a 9fbe b70c 16bf d2bc 59bf 5033 61be
00000090: d470 bebd 5c5e 6abe 131c 4abe ae3d 35be
000000a0: 6e6e 9fbe e69c c7be f496 2cbe 34eb aebd
000000b0: 92e0 93be ddcc 61be 6cd1 96be 7fd1 abbe
000000c0: acb5 f9bd a8a4 31be 680f a4bc ce07 00bf
000000d0: 3920 0fbf 5bcf d5be 3016 9dbe 4603 f6be
000000e0: a7b3 c3be 40a4 06be b8ca 8dbe ef2c f3bd
000000f0: eadf dabe ca17 dabe 904e 9cbe 1928 dabe
00000100: 7208 93bd 0820 b8be 6c05 d7be d4a3 a2be
00000110: e04b 243c 9b60 1fbe 11a0 dabd 8047 93bc
00000120: 91c0 22be 97b1 05bf 987c 4bbe e2ce 00bf
00000130: bccf 4fbd 663c 8abe 36ef f1be d699 c7be
00000140: 983f 51be 6550 1ebe 4013 3abd 53a3 bbbe
00000150: ac4c b9be 1c52 c7be 7b74 d8be 8e9b bdbe
00000160: cf5a 06be 6122 5bbe 7020 d7be ceb2 1cbf
00000170: 4870 0fbf 3521 27be 80f7 9e3b 8480 04bf
00000180: b47a 06bd 5e3f 6abe f018 febc 1ae7 efbd
00000190: a409 27bd 90fb 74be a45a 09be c026 c7be
000001a0: 4cfa 18bf e2b6 5fbe 720c 0bbe e416 0ebf
000001b0: be75 b9be 3779 afbe a97c a7be c304 70be
000001c0: e9ca 46be c416 e1be 00eb 6cbb 2cad c5be
000001d0: 04e3 8dbe 2244 85be 77f0 88be 3cfa 4fbd
000001e0: 3032 76be 044e d8bd b601 c9be 21f5 02bf
000001f0: 863f a6be 735a 54be 0032 03be 32f3 5bbe
-0.20142858 -0.20932434 -0.5280749 -0.1606172 -0.13580646 -0.121530354 -0.20811915 -0.33603868
-0.08103487 -0.18173742 -0.43774393 -0.08244723 -0.07348217 -0.36330327 -0.2362246 -0.046787024
-0.13990876 -0.08209106 -0.12096445 -0.38932225 -0.1037737 -0.21770775 -0.0015718937 -0.78365844
-0.17843366 -0.04422292 -0.24605803 -0.16998002 -0.35958827 -0.52669495 -0.52962065 -0.23133586
-0.31062692 -0.5861315 -0.8505374 -0.2199223 -0.09298864 -0.22887558 -0.19737272 -0.1769931
-0.3113894 -0.38986892 -0.16854459 -0.08540955 -0.2888227 -0.22050805 -0.2945665 -0.3355827
-0.12192854 -0.17347968 -0.020026878 -0.5001191 -0.5590854 -0.41759762 -0.3068099 -0.48049372
-0.38223 -0.13148594 -0.27693725 -0.11873805 -0.42748958 -0.42596275 -0.30528688 -0.42608717
-0.07179345 -0.35961938 -0.41996324 -0.31765616 0.010027856 -0.15564196 -0.106750615 -0.01797843
-0.15893771 -0.52224106 -0.19871747 -0.5031568 -0.05073522 -0.26999205 -0.47252816 -0.38984555
-0.20434415 -0.15460356 -0.045428514 -0.36648044 -0.36191308 -0.38929832 -0.42276368 -0.3703274
-0.13120578 -0.21399833 -0.42016935 -0.61210334 -0.560307 -0.16321261 0.0048512816 -0.517586
-0.032831863 -0.22875735 -0.03101775 -0.11714001 -0.04078068 -0.23924088 -0.13413483 -0.3889675
-0.5975692 -0.21847108 -0.13578966 -0.5550368 -0.36222643 -0.34272167 -0.32712296 -0.23439316
-0.19413342 -0.4396268 -0.0036150813 -0.38608682 -0.27712262 -0.26028544 -0.2674596 -0.05077575
-0.24042583 -0.10561755 -0.39259118 -0.5115529 -0.3247034 -0.20737629 -0.12812042 -0.2147949

sequential_1/batch_normalization_6/FusedBatchNormV31 f4 [128]
00000000: 06ff ab3e 48cb ad3e e643 363f 0c9f ea3e
00000010: 1979 393f ed83 ff3e f4fe ee3e 5250 fd3e
00000020: dbf4 423f 4566 843f 252e 183f 0448 ae3e
00000030: 0bdf 873f 9b30 0c3f e5cc b33e f54a 3c3f
00000040: 86de 1e3f 41e4 ce3e eb3d e53e 7d4e 9d3f
00000050: 5bb5 443f be5b a73e 054b ea3e a336 c13e
00000060: e653 5b3f ffea 723f 2da1 d53e aeb2 8f3e
00000070: 46c7 9e3f e777 ab3e 5beb cf3e a3a8 753f
00000080: 0eaa fa3e c15c ee3e b400 e23e bf5d e53e
00000090: c3c8 eb3e ec6a d03e f473 9e3e a8c2 2c3f
000000a0: 2bee e73e 9549 9f3e 256f d23e f7f6 113f
000000b0: 37f3 d03e 3563 ab3e b010 593f da5d c73e
000000c0: f217 df3e 06f4 ed3e ec12 d53e 92e7 a73e
000000d0: 43fb 2a3f 247d 493f d690 253f fbf8 d03e
000000e0: 536d 633e 0e52 3d3f dc8c 223f b182 883f
000000f0: c5b6 153f 102a f93e b53d 323f b51c 243f
00000100: 261a a53f 81a8 0a3f 73c5 5f3f 0e41 d03e
00000110: 4719 3c3f e288 083f 47e8 8e3f 1874 cc3f
00000120: 2bea fc3e 0f33 0e3f 3a0f 223f ec6e b53e
00000130: d3eb a33f 0c0c ba3e 0075 ba3e 1645 9d3e
00000140: ccc9 c13e e210 053f 779a 683f ed2e ba3e
00000150: 4694 0e3f ece2 153f 46dd 533f 22ed 8a3e
00000160: e5d4 583f 7807 b43e 3895 563f 0c07 333f
00000170: 3874 353f f9b8 163f 4315 2e3f f624 1e3f
00000180: 29a7 103f a31c 1f3f 0fb6 0b3f d781 693f
00000190: bb36 4c3f fa9d ef3e b0d1 f53e c794 1f3f
000001a0: bb6c 2f3f 988e 403f 71bd 043f cf1f 903e
000001b0: 69cc a73e f96d bd3e 62e8 a73e 487d 703f
000001c0: 0752 3d3f b7c9 cf3e 07e1 2c3f fa55 4f3e
000001d0: 25ea cb3e bc95 ef3e 614b d23e b4a2 813e
000001e0: 7b96 a63e c3a4 bc3e 6082 f13e b37d ee3e
000001f0: 65bf e33e e1bb 0d3f 3456 7d3f a607 323f
0.33593005 0.33944154 0.71197355 0.45824468 0.72450405 0.4990534 0.4667889 0.49475342
0.7615487 1.034371 0.5944541 0.3403932 1.0614942 0.54761666 0.3511726 0.73551875
0.62058294 0.4040852 0.44773802 1.2289578 0.76839226 0.3268718 0.4576036 0.37736997
0.85674894 0.94889826 0.4172453 0.2806601 1.2404563 0.33489916 0.4060925 0.95960444
0.48957866 0.4655514 0.4414116 0.44798085 0.46051607 0.40706575 0.3094784 0.6748452
0.45298895 0.31110826 0.41100422 0.57017463 0.40810558 0.33474126 0.8479109 0.3893879
0.43572956 0.46475238 0.41616 0.32793862 0.66789645 0.78706574 0.6467413 0.40814957
0.22209673 0.7395333 0.63496184 1.0664884 0.5848201 0.48664904 0.6962541 0.64106303
1.2898605 0.54163367 0.8741066 0.40674633 0.7347607 0.53333867 1.1164635 1.5972929
0.49397406 0.5554666 0.63304484 0.3543619 1.2806343 0.36337316 0.3641739 0.3071677
0.3784927 0.51978886 0.90860695 0.36363927 0.55695 0.5854938 0.8275951 0.27134043
0.8469985 0.35161948 0.8382144 0.6993263 0.7088046 0.58875996 0.6800119 0.6177515
0.56505066 0.6215307 0.54574674 0.91213745 0.7977101 0.46800214 0.4801154 0.6233639
0.68525285 0.7521758 0.51851565 0.28149268 0.3277314 0.36997965 0.32794482 0.93941164
0.7395329 0.40583584 0.67530864 0.20247641 0.39827076 0.46793926 0.41073135 0.25319445
0.32536682 0.36844453 0.4716978 0.46580276 0.4448196 0.55364805 0.9895966 0.6954292

sequential_1/batch_normalization_7/batchnorm/mul f4 [32]
00000000: 58be bd3f e8e2 b03f 9804 c13f 79db da3f
00000010: ed24 d13f 16e2 b23f 7178 d43f 5a6d ae3f
00000020: bb18 b93f 6bc2 b93f 8e46 ca3f 07df c03f
00000030: 863a ea3f ffda b73f 3c7c bf3f b176 d73f
00000040: fc96 b43f 0607 c13f 35d2 d13f efc5 e83f
00000050: bfae cd3f 9bcc c13f dd84 f13f 9bff bf3f
00000060: c87b fd3f 29e8 e33f 1f3e d03f 5f2b a93f
00000070: 603b c23f 0512 bb3f 67a5 bf3f e74e dc3f
1.4823713 1.3819246 1.5079527 1.7098228 1.6339394 1.3975246 1.6599256 1.3627121
1.4460672 1.4512457 1.5802782 1.5068063 1.829911 1.4363707 1.4959788 1.6833097
1.4108577 1.5080268 1.6392275 1.8185405 1.6068953 1.5140566 1.8868672 1.499988
1.98034 1.7805225 1.6268958 1.3216361 1.517437 1.4614874 1.4972352 1.7211579

sequential_1/batch_normalization_7/batchnorm/sub f4 [32]
00000000: 36d6 bbbf b2f9 bcbf 5ad2 b9bf bc7a bdbf
00000010: 4a13 acbf 282f d8bf 9b83 a2bf 215c b8bf
00000020: f006 dfbf 768f adbf 58d3 c5bf 2b78 babf
00000030: 2dcb d5bf f53b 92bf fbe0 b2bf 1aa0 c1bf
00000040: ed95 adbf a201 afbf 21e4 c8bf 2b75 80bf
00000050: d2b4 9bbf f0e8 d3bf 1f7a c7bf 00d4 cbbf
00000060: d25d bfbf b0f6 a0bf 4a9b bcbf 621b c0bf
00000070: bbf8 ecbf f32c debf e795 b6bf 5c16 9abf
-1.4674747 -1.4763701 -1.4517319 -1.480308 -1.3443387 -1.6889391 -1.2696413 -1.4403116
-1.7423992 -1.3559406 -1.5455122 -1.4567922 -1.6702629 -1.1424547 -1.3974909 -1.5126984
-1.3561379 -1.3672373 -1.569462 -1.0035757 -1.2164557 -1.6555462 -1.5584143 -1.5924072
-1.4950507 -1.2575283 -1.473489 -1.5008357 -1.8513407 -1.7357467 -1.4264497 -1.2038074

sequential_1/dense_2/MatMul f4 [32, 1152]
00000000: a747 5fbb 5d67 3cba 5a7a 34bb 9dd4 40ba
00000010: b5fc ec39 115f c3bb 5ed1 1dba 631a 06bb
00000020: 5d92 9939 8a97 88bc b3e3 ae3b e99d 28bc
00000030: c198 23bb 1c6e 8f3a 07a0 a2bb 94f7 0d38
00000040: b6cd 9d39 3b94 19bc b6b6 48ba 80d6 0a3b
00000050: c056 ed39 30f9 3aba 22d7 753b a8bf aa39
00000060: 597d b43b 2a43 5d39 ce34 48bc 0f50 433b
00000070: 1c19 cfba 2033 043c fb74 b23b 5223 1ebb
00000080: 5a94 5f3b 1ced 813b 44b9 03bb dc20 a63b
00000090: b8cf fbbb 466a a4b9 a3ca 9eba 9e62 56bb
000000a0: ca3f d4b9 3d86 3a3b 26dd dcba 9de2 73bc
000000b0: bd1f 7a3b 8034 04bc a5ee 9a3a f690 ca3b
000000c0: 8ada 063a 3a79 6e39 b729 83ba 6f44 17bb
000000d0: 673f 81bb 82de 923b 5ca6 53bc a57c e4ba
000000e0: b449 be3b bc79 d23a 9ec9 34ba 8916 883a
000000f0: e96d abbb b065 2aba eab9 083c 93e7 093a
00000100: a3c9 733b 5cd1 20bc 2766 46bb a805 f539
00000110: d439 5a3b 4381 ad3b ae88 7db8 1d4d cdbb
00000120: df20 823a e1a5 8cbb 9569 c839 9379 c6bb
00000130: 9ca6 c639 2cde d7bb 2266 89bb c84e 1aba
00000140: 067c 003c a9d4 34bc 3976 383b 5d33 c6bb
00000150: f605 f4bb 902c 14bc fe75 f63b a9b2 2d3b
00000160: 3125 e738 6024 f3b9 bda9 503b 0101 033b
00000170: 60cd 23bb 23c2 4a3c 9d0a 84b9 7c7a 963a
00000180: 52f6 e638 9196 ca3a 338b fb3a fc3e 623b
00000190: b7ed 8239 5e49 5fbc 7bab 57bb 344d 743a
000001a0: 3b3f 8bbb 2227 cbba b6fa e2b9 4642 41bc
000001b0: 6307 57bb 7a8a b63a 38e6 8eb9 55b5 49bb
000001c0: 3154 183a 12c2 68bc 201d 3b3b 7bb3 76bb
000001d0: af05 05bc 9a42 e5b9 8122 61bb ddeb 8e3a
000001e0: 93be f3bb 4b09 a83a 5a60 b53a eac5 863a
000001f0: 638d 213a c993 803b 57ec c73a 5eff 65bc
00000200: 6722 a6bb c19d 78ba ca11 a73a b4ab 98ba
00000210: c2f3 c2bb 897f 48bb 5043 27bb 035a 14bc
00000220: 2116 ee3a b98e 563b 8407 9dbb 593d 7a3a
00000230: f021 d1bb 252f af3a 454d 503b 77e8 3fb9
00000240: e998 1fbb d82f 39bb 62ac 9bbb 1930 123c
00000250: 6607 e93b f2c7 81bc 7599 4cbc 0e31 c6bb
00000260: 2587 c8ba 442f 0bbc c418 d6ba b32a efb9
00000270: dc68 053a 8866 03bc ff6f dc3b f7f6 68b9
00000280: e3d2 71bb 3567 ef3b 658c 90ba 0d21 44bb
00000290: 8830 2d3b 974a 763b 1063 8ebb 8c77 943a
000002a0: 28ac debb b1f4 223b 31db 373c add6 ea3b
000002b0: d91d edbb 94b0 89bb 3531 00bb 57e9 d7bb
000002c0: 7638 a9ba a4d1 20bc 910e 08bc b80c ddb9
000002d0: f24a 843c 431c 0d3b 2846 183c 4c1c 51bb
000002e0: c99e 2abc 3975 14bb a0e7 ad3a 9b07 063c
000002f0: d098 133c 55eb d6bb 0018 f13b 04b6 72bb
00000300: c32b 4cba b10f 303c 8f00 593b ff76 6b3b
00000310: ae30 1c3c 9d7f b6bb df87 1db9 7031 a9bc
00000320: 73e1 c1ba 58ba 32bc 5453 f5ba ba00 02bc
00000330: 86d1 6cbb 91bd 4cbc 5f17 3fbb f1ec 90bc
00000340: 682d fa3a 26ad 67bb 3c65 90bb 9fce 953c
00000350: 4cea 66bb 309d adbb 96b7 8ebb a5e7 ba3b
00000360: 4198 abb8 07a9 01bc 9877 a83b bb4d 883c
00000370: 665d 0b3c c979 7dbc 362b c53a 3529 053b
00000380: 60c6 5b3b ae7c 1c3b c936 3c3b de19 e73b
00000390: c5f2 acb9 e045 1dbc 46a4 bf39 436c f0ba
000003a0: 19f0 81bb ed26 8bba d5e6 6b3a b749 f13b
000003b0: 7c34 ef3a d375 473c 1c28 09bb 4a04 d83c
000003c0: 2fbe 4939 3d81 dc3b db86 743b 8ae6 02bc
000003d0: d84b f038 a61a bfb9 0f9d 193b 90ee 953a
000003e0: 848c 34ba d004 e0b7 e7b7 5fbb 7c08 babb
000003f0: 618b bf3b 37f3 493b 09ac 24bc 226a 67bb
-0.0034069808 -0.0007187033 -0.0027538748 -0.00073559006 0.0004520171 -0.0059622605 -0.0006020273 -0.0020462505
0.00029291483 -0.016673822 0.0053372025 -0.010291555 -0.0024962875 0.0010942849 -0.0049629244 3.3847595e-05
0.0003009864 -0.00937372 -0.00076566206 0.002118498 0.00045268796 -0.0007132469 0.0037512262 0.00032567722
0.0055081067 0.00021101223 -0.012219621 0.0029802357 -0.001580033 0.00806883 0.005446074 -0.002412994
0.0034115524 0.003965033 -0.002009944 0.005069835 -0.007684674 -0.00031359697 -0.0012114834 -0.003271259
-0.00040483318 0.002846136 -0.0016850575 -0.014885572 0.003816589 -0.008069158 0.0011820389 0.0061818315
0.0005144259 0.00022742609 -0.0010006939 -0.002308156 -0.0039443257 0.0044820914 -0.012918081 -0.0017432166
0.005807126 0.0016058008 -0.00068964984 0.0010382693 -0.005231608 -0.0006500138 0.008345107 0.00052606425
0.0037199042 -0.00981554 -0.003027329 0.00046734256 0.0033298628 0.00529495 -6.0447193e-05 -0.006265296
0.0009928009 -0.0042922352 0.00038225637 -0.0060569732 0.00037889637 -0.0065877642 -0.0041930834 -0.0005886373
0.0078420695 -0.01103703 0.0028146638 -0.0060486034 -0.0074469997 -0.009043828 0.00752139 0.0026504195
0.00011021866 -0.00046375673 0.0031839453 0.0019989612 -0.002499424 0.012375387 -0.0002518491 0.0011480595
0.000110131354 0.0015456249 0.0019191265 0.0034522405 0.00024972644 -0.013628332 -0.0032908607 0.00093193655
-0.004249481 -0.0015499333 -0.00043292873 -0.011795586 -0.00328108 0.0013926767 -0.00027255877 -0.0030778248
0.00058108853 -0.014206426 0.0028551295 -0.00376436 -0.008119031 -0.00043727906 -0.0034352841 0.0010904033
-0.0074384897 0.0012820152 0.0013837919 0.0010282372 0.0006162731 0.0039238674 0.001525293 -0.014037935
-0.005070019 -0.00094839564 0.001274639 -0.0011647851 -0.0059494684 -0.0030593595 -0.00255223 -0.009054664
0.0018164554 0.0032738878 -0.0047921557 0.00095458847 -0.0063822195 0.0013365491 0.0031784337 -0.0001830178
-0.0024352616 -0.0028257277 -0.0047507742 0.0089226 0.0071114777 -0.015842412 -0.012487759 -0.0060483282
-0.0015299065 -0.008495156 -0.0016334285 -0.00045617446 0.00050891726 -0.008020051 0.006727218 -0.00022217246
-0.003689938 0.0073060044 -0.0011028169 -0.0029926926 0.0026426632 0.003758108 -0.0043453053 0.0011327132
-0.006795425 0.0024865086 0.011221693 0.0071667046 -0.007236224 -0.004201958 -0.001956058 -0.0065890956
-0.0012910503 -0.009815607 -0.008304254 -0.0004216188 0.016149018 0.0021531738 0.00929407 -0.0031907735
-0.010413834 -0.0022652878 0.0013267882 0.008180524 0.009008601 -0.0065588155 0.0073575974 -0.003703476
-0.00077885034 0.010745929 0.0033111905 0.0035929081 0.0095330905 -0.005569412 -0.00015023303 -0.020653456
-0.001479192 -0.010908686 -0.001871685 -0.007934744 -0.0036135628 -0.012496368 -0.0029158217 -0.017691107
0.0019087018 -0.0035351007 -0.0044065993 0.018287001 -0.0035234867 -0.005298279 -0.0043553812 0.0057038837
-8.182275e-05 -0.007913834 0.00514121 0.016638627 0.008506155 -0.01547093 0.0015042785 0.002031875
0.0033534989 0.0023878026 0.0028719178 0.007052644 -0.00032987274 -0.009599179 0.00036552752 -0.0018342811
-0.0039653894 -0.0010616459 0.0008998935 0.007363524 0.0018249894 0.012174088 -0.0020928448 0.026369233
0.00019239703 0.0067292736 0.0037311825 -0.007989535 0.00011458219 -0.00036450214 0.0023439561 0.0011438895
-0.00068873935 -2.6705122e-05 -0.0034136714 -0.005677281 0.0058454727 0.0030815133 -0.010050782 -0.0035311063

sequential_1/dense_3/MatMul f4 [10, 32]
00000000: 6429 a5be fa02 a0be 268a 9dbe 41a6 83be
00000010: f218 46be 6dbd b7be 1893 8b3d 7386 913e
00000020: e40e 8dbe 07a5 93be 5edc 92be e5ab 58be
00000030: bb61 553d 0f8e a7be 79d8 8ebe c803 933e
00000040: 11e2 6b3e 4957 83be 64f5 013e 4929 623e
00000050: 2823 713e 7e96 7abe 0ca1 a3be aebf 70be
00000060: 9452 59be 0c31 a93e f24c 833e 7f2d b1be
00000070: 0ce1 303e 4067 4bbe cd69 acbe 7f22 8b3e
00000080: bbf7 95be 2433 253e 4ede 9cbe 4488 a5bd
00000090: 40f8 3e3e b210 c3be 30d3 95be 2bd0 993e
000000a0: 4b3b 4bbe 81d0 c7be fd7b 823e d6cf 623e
000000b0: 8779 1e3e 334f a5be 90c2 a0be 6bef a33c
000000c0: c586 a6be 2910 583e 27e6 74be 8347 93be
000000d0: 9ef1 9fbe 7455 6a3e af56 58be 5b0c 8c3e
000000e0: ae59 a83e 66a2 b13e 5953 17be 91aa adbe
000000f0: 9746 91be f7fd b3be b497 9bbe a327 ad3e
00000100: 9fc2 98be 24f8 bbbc f5b0 ae3e 09bd aa3e
00000110: ec1c 9abe 4187 96be 5f97 a3be 9dd4 c3be
00000120: d7a9 34be 386d b53e 88fe 5dbe 7d1d 85be
00000130: d093 873e 1641 50be 46e9 b83e 7573 d1be
00000140: bf64 7abe 7ed1 89be 78c3 873e fc5a 9a3e
00000150: 70f2 c3be 08e7 79be bf7a b93e 510a bb3e
00000160: bc05 c2bd e38a 8fbe 9bf1 353e f709 54be
00000170: 2af2 a0be 663d 91be 1b57 ac3e 88fd 9fbe
00000180: daf4 b5be c616 953e d9c0 5e3e cdaf d33e
00000190: 0ac6 3bbe e97a b7be f5bb c83e e2b5 d73e
000001a0: 434c 863e 53c9 c7be 40d0 93be 91d4 c0be
000001b0: 68a7 ac3e 216e ce3e f376 bfbe 8581 dabe
000001c0: adf4 abbe fda7 cd3e 1b46 9d3e 3101 d8be
000001d0: 483c dd3e 9c6c 883e 6cc6 5e3e 0539 cbbe
000001e0: 57d3 75be 0150 8bbe 7165 cabe a1bb 58be
000001f0: c6ac 343e a232 a63e 2771 bd3e 28f0 92be
00000200: 9fc1 b33e b19d a33e 9cf7 95be a930 913e
00000210: 7ae8 d13e 2fef a93e 8c83 903e f60c c43e
00000220: a5f2 cbbe d385 813e 5272 9e3e ff85 b2be
00000230: 6b6b 9c3e 90b3 87be eeed d1bc 8633 c9be
00000240: 3076 583e 4085 cebe d662 51be 8efc aa3e
00000250: c7d0 ee3e 870d 923e 45a1 933e 90ee a93e
00000260: 6a46 a6be b66a afbe 1d10 ac3e 72fa 723e
00000270: 8a5f b4be 68ee b7be 4994 4ebe fee9 b1be
00000280: efe0 84be 1838 99be fb5d 5dbe 1e6d 96be
00000290: 5de0 06bd a578 9a3e bde1 9cbe 961e 85be
000002a0: 9c05 a13e 6b99 993e 2429 9ebe 4127 2ebe
000002b0: 01e4 513e 2c26 7ebe 94a5 663e ae61 aa3e
000002c0: c8de 963e 13a6 a5be 12d6 5cbe 78ed 8bbe
000002d0: 5e94 75be 5f16 513e 5049 9abe 7d5c 693e
000002e0: 2ed6 93be 9497 923e 05fd 673e c89f 9e3e
000002f0: dcee 8a3e 03f5 863e f6a9 4a3e 3dd2 a2be
00000300: 8213 b73e bba9 bdbe ab1a 993e a9c2 9abe
00000310: 2180 c23e 6280 e23e 452d 8bbe dbfa e1be
00000320: 601b 98be 226d c63e 126e c3be f365 82be
00000330: 6548 a5be 1bf1 83be 3717 8cbe 27af a0be
00000340: 617c 91be 4e54 9e3e e5b1 95be 8404 8cbe
00000350: ebc5 8e3e 654b b8be d637 a0be 05d5 bbbe
00000360: 885e 883e 20e2 92be 81c8 98be c0f5 acbe
00000370: 810d 87be 173f c53e 0806 94be 4bf4 9f3e
00000380: be0e e93e 1dc9 a93e cd0b 983d bb02 98be
00000390: ec63 1fbe e654 a2be 8361 983e 8cbf ccbe
000003a0: 5634 afbe 8167 8ebe f84d 80be 4625 cb3e
000003b0: b507 93be 4752 c73e e905 72be 7940 1c3e
000003c0: ce6d bdbe de31 02be f8cb 99be 9ebe 99be
000003d0: b8bb 983d 6508 bd3e e133 9bbe ffd2 87be
000003e0: 8392 99be 20bd 9bbe 8059 763e 3ad9 b83e
000003f0: 5b72 b23e a0dd b1be d60c 853e e82d a9be
-0.3225814 -0.3125227 -0.3076946 -0.2571278 -0.19345453 -0.35886708 0.06815165 0.2842289
-0.27550423 -0.28836843 -0.28683752 -0.21159323 0.052095156 -0.3272557 -0.2789953 0.28713822
0.23035456 -0.2565253 0.12691265 0.22086062 0.23548567 -0.2447147 -0.31958807 -0.2351062
-0.21222907 0.33045232 0.25644642 -0.34605023 0.17273349 -0.19863605 -0.3367447 0.27174756
-0.29290566 0.1613279 -0.30638355 -0.08082631 0.18649387 -0.38098675 -0.29262686 0.30041632
-0.19846837 -0.39026263 0.2548522 0.22149596 0.15476047 -0.32286987 -0.3139844 0.020011624
-0.32524696 0.21099915 -0.23915921 -0.28765497 -0.31239027 0.2288416 -0.21126817 0.27353176
0.3288092 0.34694213 -0.14777888 -0.33919194 -0.28374168 -0.35154697 -0.30389178 0.33819303
-0.29835984 -0.022945471 0.34119383 0.33347347 -0.3010019 -0.29400066 -0.31951424 -0.3824815
-0.17642914 0.3543489 -0.21679127 -0.2599906 0.2647996 -0.20337328 0.36115474 -0.409084
-0.24452494 -0.26917642 0.26516318 0.3014754 -0.38270903 -0.24404538 0.3622646 0.36531308
-0.0947375 -0.2803565 0.17767946 -0.20706926 -0.31434757 -0.28367156 0.33660206 -0.31248116
-0.3553837 0.29118937 0.21753253 0.41345063 -0.18337265 -0.3583596 0.392059 0.42130953
0.26230058 -0.39020786 -0.2886982 -0.37662175 0.3372147 0.40318397 -0.3739544 -0.4267694
-0.3358511 0.40167227 0.3071755 -0.4218841 0.43210053 0.26645362 0.2175538 -0.3969194
-0.24006401 -0.27209476 -0.3953052 -0.21165325 0.17644033 0.32460505 0.3700039 -0.2869885
0.3510866 0.31956246 -0.29290473 0.28357437 0.40997678 0.33190295 0.28225362 0.38291138
-0.3983356 0.25297412 0.30946594 -0.34867856 0.30550703 -0.26504183 -0.025626149 -0.39297122
0.21138835 -0.40336037 -0.20447859 0.3339581 0.4664366 0.28525946 0.28833976 0.3318982
-0.32475597 -0.342611 0.33606043 0.2372835 -0.3522914 -0.35924077 -0.20173754 -0.34748834
-0.2595286 -0.2992561 -0.21617882 -0.29380125 -0.032928813 0.3017017 -0.30640975 -0.25999898
0.31449592 0.2999986 -0.30890763 -0.17007162 0.20497133 -0.24819249 0.225241 0.3327765
0.29466844 -0.32353267 -0.21566036 -0.27329612 -0.23982379 0.2041869 -0.30134058 0.22789188
-0.28874344 0.2863127 0.22655113 0.30981278 0.2713536 0.26358804 0.19791397 -0.31801024
0.3575707 -0.37043557 0.2990316 -0.3022664 0.3798838 0.44238573 -0.27182975 -0.441367
-0.29708385 0.38755137 -0.38169914 -0.25468406 -0.32281795 -0.25769886 -0.27361462 -0.3138363
-0.28415206 0.30923694 -0.29237285 -0.27347195 0.27885374 -0.3599502 -0.312926 -0.36685959
0.26634622 -0.28688145 -0.29840472 -0.33781242 -0.2637749 0.38524696 -0.2891085 0.31241068
0.4551906 0.3316125 0.07424126 -0.29689583 -0.15565461 -0.31705397 0.29761896 -0.3998989
-0.34219617 -0.27813342 -0.25059485 0.39676875 -0.28716817 0.3892996 -0.23635067 0.1525897
-0.36997837 -0.12714335 -0.30038428 -0.30028242 0.074576795 0.36920467 -0.30313018 -0.26528165
-0.29994592 -0.30417728 0.24057579 0.3610323 0.3485287 -0.347394 0.25986356 -0.33042836

sequential_1/conv2d_3/Conv2D f4 [32, 3, 3, 1]
00000000: 65a0 20be eb36 b2bd c907 9bbb 6810 95bd
00000010: e337 8bbd 6786 143d 836f a83d 9e3c 453e
00000020: a21e adbc bbc2 913d 6045 62be 4a77 f73d
00000030: 42d4 3f3c 3a93 92bd 0478 0a3d d484 3d3d
00000040: bddf 51bd a151 25bd 0625 c2bd 2281 7a3c
00000050: 8143 da3b 2559 e4bd 2580 223e 8b13 46bd
00000060: 34cf 39bd 4505 f43d 24b2 ddbd 1cd6 e03d
00000070: 44f1 c73d e083 6a3b bc36 a0bd 58bb 843c
00000080: 70ab af3d 17b0 c9bb f2c5 41be 8795 f7bd
00000090: 4568 463c 40b3 f33d 3f1a 323e 9f4f 5bbc
000000a0: b1e2 c9bc 2341 c0bd aafa acbd 9780 1cbc
000000b0: 8124 13be fd95 b1bc 206d b83c 76fc c2bd
000000c0: ec0d 59bb 1900 343d 7a5f 92bd c50e 4a3d
000000d0: 1efc 6cbd 4658 2a3d 46cb 153c 6529 d5bc
000000e0: 58e3 543d d770 1bbd 5116 9dbc cca1 023e
000000f0: 0792 0f3e 4d47 96bc 3c12 c0bd 2a5e a43d
00000100: be7e b0bc fa5c 46bd b2b2 8f3d bc86 e23d
00000110: 33bf 0ebd 39bc ed3d 65e5 8d3d cd7d 6c3d
00000120: 1c9e a0bd 8c08 4bbd f39b 3abd 4639 813c
00000130: ebc9 9fbc dde2 82bd a1ac 573c bb93 4dbb
00000140: 8151 3abc 17f2 1f3c 00ee dabd d0ea 2a3d
00000150: 8de4 4dbe abf2 243e 8683 903d a1ec e43d
00000160: 7155 3c3d 2705 33be 6f00 183c 7a98 78bc
00000170: 173f 84bc 9808 ed3d 52b0 c23c d66c 2bbe
00000180: e48a 123e f49f 3d39 796b 18be 35cc 0bbd
00000190: e3fd 5bbe 8646 f7bd d5e8 8b3c 8615 403d
000001a0: 10fa 88bd 6ce9 d33d 419f e63d 8485 a43d
000001b0: 88d4 be3d e311 403d 6e91 8ebd 5d7b 0f3e
000001c0: 5cce f8bd 6a09 f3bd 3a7d f4bd 0793 5cbe
000001d0: 6e9c 9b3c b833 903d 1ebb e63d 2d4a 5abc
000001e0: d5f5 afbd 6eeb b53a 4da7 31be e874 bbbd
000001f0: 2c4b f4bd 9541 e9bd 972a e9bd 7315 923d
00000200: 931b 593d b2f4 d3bd d3e9 2cbe aea5 05bd
00000210: 3c8b 163e 625c eabd cb12 bd3d db82 6ebd
00000220: 2ffe dc3d e8db 43bc 3bcf 49bd 61e7 a3bd
00000230: 485e 023d 6137 02bd 5809 ce3c 844e 71bd
00000240: a42f 13be a1ee b0bd c31f c4bc d6ea 68bd
00000250: b40b 7cbe b192 8b3d 20ee e53d 6fd0 84bd
00000260: 828a b2be b82e da3d e8b7 423c 5fab 56bd
00000270: f9c9 ae3d 58eb 3c3e f600 283e 5264 e5bd
00000280: 961f 1cbd 3cfe b23d 0d89 2cbd dc3f 2b3e
00000290: 615d 01be 99b0 98bd 50e2 983c 4c60 153d
000002a0: d0a6 17bb f4c2 30be 6230 143d 28b3 86bd
000002b0: d172 10be 618d d63c 1cec d73d ca1d 723d
000002c0: badb 9ebc 8efe 8fbd ae4a ca3c e13e f2bb
000002d0: a55e fabd 47f7 06be 48e5 423c d5d1 5dbd
000002e0: ed4f c83b e0a8 1f3e 871a 293d 78c6 233d
000002f0: d124 1d3d 7591 b83c b059 fabd 998b ebbd
00000300: 7387 913d aaac 743e a2cb 1abc f8bf 1dbe
00000310: cfb4 c0bd b444 153d 8b4b dbbd ddd9 9dbd
00000320: fa16 4cbd 02da cebd 1fc4 aabd da4e 01bd
00000330: 76bf 273e 3c17 763c 9246 893c 05c6 ca3d
00000340: d58b 1bbd ae7e 2cbe f1ab bf3d 1c7b f7bd
00000350: e199 1bbe c381 d9bd ed49 c8bd 38e5 0cbe
00000360: 64e1 613d 911f b93d b6c8 52bd 2b83 cbbe
00000370: 180c debd 3802 12bf 775e 20be 0e16 163e
00000380: ad48 99bd 74c0 80be a4d2 8bbd 57ea 2bbe
00000390: 11ba 04be b27d 01be 1b73 2fbe 5a33 643e
000003a0: 1734 bcbd 22ab 62bd 070c cdbc b168 bfbd
000003b0: 3af1 30be 9ca7 673d ef43 59bd 9496 00be
000003c0: 5826 973d 483a 913d 6b0a 22bd 8bbc aebc
000003d0: 8809 74bd 6f3f a23d 1767 fd3d ec31 35bc
000003e0: d225 98bd cdc0 ab3d 95a3 babd 748c 71bd
000003f0: 3238 4b3d a06f dd3d 840f 02bb f435 ccbd
-0.15686186 -0.08701881 -0.0047311527 -0.0727852 -0.06797769 0.03626099 0.08224394 0.19261405
-0.02113277 0.0711722 -0.22096777 0.120832995 0.011708321 -0.071569875 0.033805862 0.046269253
-0.051238764 -0.04036105 -0.09479718 0.015289577 0.006660879 -0.111498155 0.15869196 -0.04835848
-0.04536362 0.119150676 -0.10824993 0.10978338 0.09762815 0.003578417 -0.0782294 0.016202614
0.08577621 -0.0061550247 -0.18923166 -0.12089067 0.012109821 0.118994236 0.17392825 -0.013385682
-0.024644228 -0.09387424 -0.08446248 -0.009552143 -0.14369394 -0.021677965 0.022512972 -0.09520809
-0.003311987 0.043945406 -0.07147117 0.04933049 -0.057857625 0.04158809 0.009142702 -0.026020715
0.051974624 -0.03794941 -0.01917568 0.12757033 0.14020549 -0.018344546 -0.09378478 0.08025773
-0.02154481 -0.048428513 0.07016505 0.11060855 -0.03485031 0.11608166 0.06928519 0.05773716
-0.07842657 -0.049568698 -0.04555888 0.01577438 -0.019505462 -0.06390927 0.0131637165 -0.0031368572
-0.011371971 0.009762309 -0.10689926 0.04172784 -0.20106716 0.16108195 0.07056336 0.11177946
0.04597992 -0.17482434 0.009277447 -0.015173072 -0.016143365 0.11573905 0.023765717 -0.16740736
0.14310795 0.00018084032 -0.14884748 -0.034130294 -0.21483569 -0.12073998 0.017078796 0.046895526
-0.06688321 0.10347256 0.11260844 0.080332786 0.09317881 0.046892058 -0.06961332 0.14011903
-0.12148735 -0.1186703 -0.119379476 -0.21540461 0.01899549 0.070411146 0.112661585 -0.013323349
-0.085918106 0.0013879368 -0.17348976 -0.091531575 -0.119284004 -0.11389462 -0.113850765 0.07132997
0.053004812 -0.10349406 -0.16886072 -0.032628708 0.14701551 -0.11443402 0.092321 -0.058230262
0.10790669 -0.011954285 -0.049269896 -0.080031164 0.031828195 -0.031791095 0.02515094 -0.05891277
-0.14373642 -0.08639265 -0.023940926 -0.056864582 -0.2461384 0.068150885 0.11227059 -0.06485068
-0.34871298 0.10653442 0.011884667 -0.052409526 0.08534617 0.18449152 0.16406617 -0.11200775
-0.03811606 0.087398976 -0.04212289 0.16723579 -0.12633277 -0.07455558 0.018662602 0.03646879
-0.00231402 -0.17261869 0.036178954 -0.0657714 -0.14106299 0.026190462 0.10543081 0.05911044
-0.019391883 -0.07030974 0.024693813 -0.0073927497 -0.12225083 -0.13180266 0.011895485 -0.05415519
0.0061130435 0.15591764 0.041285064 0.039984196 0.03836519 0.022530297 -0.12224138 -0.115012355
0.07105913 0.23893991 -0.009447964 -0.15405262 -0.094094865 0.036442474 -0.10707768 -0.0770757
-0.0498266 -0.101001754 -0.083381884 -0.03156934 0.1638163 0.015020188 0.016757283 0.099010505
-0.03797515 -0.168452 0.09358967 -0.12084028 -0.15195419 -0.10620453 -0.09779725 -0.13759315
0.05514659 0.09039224 -0.051460944 -0.3974851 -0.108421504 -0.57034636 -0.15661035 0.1465685
-0.07484565 -0.2514683 -0.06827286 -0.16788612 -0.12961604 -0.12645605 -0.17133753 0.22285214
-0.09189623 -0.055338986 -0.02503015 -0.0934614 -0.1727952 0.05655633 -0.053043302 -0.12557441
0.0738036 0.070911944 -0.039560717 -0.021330139 -0.059579402 0.07922255 0.123731785 -0.011059266
-0.07429089 0.08386383 -0.09113232 -0.058971837 0.04961414 0.108123064 -0.0019845674 -0.09971228

sequential_1/conv2d_4/Conv2D f4 [64, 3, 3, 32]
00000000: 9f47 583e 09a8 76bd c861 66bd 2727 f9bc
00000010: c2de ffbc 7025 2f3d f549 493d 3ad8 8d3d
00000020: be75 48bd 12c0 293e ad39 99bd 5ee6 a43d
00000030: aadd c53c c779 a13d 7eb7 d1bd d64d e0bd
00000040: 39cf bd3b 8ef7 833c 8740 0fbd 1fec 243d
00000050: d4ac 833e 6634 dd3d 971d e93d ec37 24bd
00000060: a46b 82bd 742d 89bd c6b7 28bd 5957 6f3d
00000070: be7a f43d ad55 2e3e f68f dd3c 651c afbc
00000080: 58fb 053e 2b35 a23c 0a4f 933d 9855 623d
00000090: 6a72 043e 5a95 6bbd de73 d83a 194a 913c
000000a0: b2c8 dcbd 0a99 a03d 5bf3 7abd 0d5b a6bd
000000b0: a4a6 c6bd 26fc 6f3c 17f8 16bc 8823 7a3d
000000c0: f577 32be d80b 0a3d c3c6 ed3c a2a1 243e
000000d0: 2ba9 0b3e b63e 2c3d c055 c9bc 36ca 0ebe
000000e0: 8229 6dbc 3f47 27be 202c 2b3c 2754 36bd
000000f0: 8c36 cc3d 2087 653d c43a 183e bb02 5dbd
00000100: af1a ddbd 2234 a03c b4fc 103c adb6 353c
00000110: d5fd fa3c 8e6a ab3d 6b74 c1bd 4c94 1abd
00000120: f0c4 a5bb edbf a4bc 4707 80bc 18f0 fe3c
00000130: c8f1 d9bd cfd6 92bc ba25 ccbd 714f 493c
00000140: e626 06be 7e20 75bd 0f73 2c3e a17b af3c
00000150: def1 ecbd 7784 8a3c 28eb fdbb a64c 223d
00000160: ce68 bbbd 7edb fb3a 116f 9c3d 6c7f 0dbb
00000170: 5e43 95bb 8e17 da3d 7ab6 dabc a7ad bcbd
00000180: 700a 553c 0271 98bd bb60 193e 2c74 d3bb
00000190: 9e25 d13c 5001 9bbd 44a5 a4bd ad67 14bc
000001a0: c451 973c a1d7 dc3d 4e68 c13d 0f18 96bd
000001b0: 62c1 203e 65d4 363d 3dff 01be 1b00 0abd
000001c0: ed2b ecbd 22fb e93d b2b5 d3bd 804a dd3d
000001d0: dedd c63d 1034 8fbb ad10 cabd 7e02 b93a
000001e0: f0b2 b2bd 7d9f 87be ab68 c4bd 9a56 b73c
000001f0: 8a45 8fbc de33 323e 9b17 033e 59fa f6bc
00000200: a2c3 12be 3cd7 bdbb 2e6c 933c d6e5 ee3d
00000210: 92de 963b 056c 773d 0ee5 ddbc 3125 b8bc
00000220: d170 9fbd eb2c 75be 14f5 94bd 181e 60bd
00000230: 7d1b fa3d ba6d 48bd 8398 bebd 7749 d1bd
00000240: 0ffd a1bd c387 95bd f857 18be 02c4 2bbe
00000250: 031a 94bd 3f9e ebbd 37b6 dfbc 734a 523d
00000260: 7ba0 23be 9f85 a9bd c8fa ed38 e198 3a3d
00000270: e5c4 b13c 5900 fa3d ceb5 c9bd d56c 7cbd
00000280: 269e 9a3d 74ae c5bd 29ae 943c 8252 98bd
00000290: 11b2 8ebd ff6f f6bd 4d05 e2bc 8852 c4bd
000002a0: e720 15be 5563 fabc b69f ddbd b980 4bbe
000002b0: f44b 393d ce9b 28bd 3f86 babd 835a a23c
000002c0: e18d c6bd 32b2 723c e14b 743d 81fa 28be
000002d0: c901 0b3e 3177 debd 66e1 cebc b5eb a03d
000002e0: 7cf9 3fbe 64dc 96bd 3fb6 fcbd fa0b 34be
000002f0: 29d2 febc 9704 9b3d 6f10 c4bc 03e4 17be
00000300: b20e cdbd ac6c 2abe 3237 bcbd 77db ab3d
00000310: 7133 d43c c545 a1bd 5544 fcbc 1ff9 39be
00000320: b5f2 66bd f290 36be 18c7 6bbd 9768 583c
00000330: b994 0abd 63d0 f4bc 73c3 17be aec2 abbc
00000340: c4ad 9dbd df90 633d bc24 e43a 50b0 90bd
00000350: f65c 73bd d6cd fb3d d97e ffbd ed75 cabd
00000360: 3429 3fbe f453 56bd 2a09 77bd c96e 07be
00000370: 8935 863c 5e59 d43d a769 01bd 39ed e2bc
00000380: 0de0 563d 03aa 5e3d 0f08 4dbc aa01 95bd
00000390: cc9d 25be 5f91 1bbc 9404 43bd 7489 99bd
000003a0: cbdb c4bb c556 b33d 3b21 09bc da37 a2bd
000003b0: e7c9 133a 4e61 013d 5006 b8bd 7b87 a5bd
000003c0: 09b2 133e 82b0 56bd c19f 01be c9d9 4e3c
000003d0: 86e4 673d 0780 733d 156e fdbc e3a1 50bd
000003e0: 9007 19bd 6e40 f03d c2c6 5c3d da59 dbbc
000003f0: 6e26 6cbd f896 91bc 182e 72bd 45a1 8b3d
0.21121071 -0.060218845 -0.056245595 -0.030414177 -0.031234149 0.042760313 0.049142797 0.069260076
-0.048940413 0.16577175 -0.07481704 0.080517516 0.02415355 0.07884555 -0.102400765 -0.10952346
0.005792525 0.016109254 -0.034973647 0.040264245 0.25717795 0.1080101 0.11382597 -0.040092394
-0.06368187 -0.066981226 -0.041190885 0.05843291 0.11937474 0.1702487 0.027046185 -0.021375844
0.13084161 0.019800743 0.0719281 0.05525741 0.1293427 -0.05751548 0.0016514023 0.017735528
-0.10780467 0.0784169 -0.061267238 -0.08122835 -0.09699753 0.014647519 -0.009214423 0.06106904
-0.17428572 0.0337027 0.029025441 0.16077283 0.13638751 0.042051993 -0.024577022 -0.13944325
-0.014475228 -0.16335772 0.010447532 -0.044513848 0.099713415 0.05603707 0.14866167 -0.053957682
-0.10796105 0.019556109 0.008849312 0.011090917 0.030638615 0.08369933 -0.09446033 -0.037739083
-0.005058877 -0.020111049 -0.01562847 0.031120345 -0.10641819 -0.017924694 -0.09968133 0.012287007
-0.13100776 -0.05984544 0.16840766 0.021421256 -0.1156957 0.016908867 -0.00774898 0.03962388
-0.09150849 0.0019215194 0.07638372 -0.0021590842 -0.00455515 0.10649024 -0.02669834 -0.09212809
0.013002977 -0.074434295 0.14978306 -0.0064530578 0.025530633 -0.0756861 -0.080393344 -0.009057921
0.018471606 0.107833154 0.09443723 -0.073288076 0.1569877 0.04463615 -0.12695022 -0.033691507
-0.11531816 0.11424853 -0.1033739 0.10805225 0.097102866 -0.00437022 -0.09866462 0.0014115123
-0.08725536 -0.26488867 -0.09590276 0.022380162 -0.017489213 0.17402598 0.12801974 -0.030148672
-0.1433244 -0.00579348 0.01799592 0.116649315 0.004604169 0.06040575 -0.02708676 -0.022478672
-0.0778519 -0.23942916 -0.072733074 -0.0547162 0.12212274 -0.04893277 -0.09306433 -0.102190904
-0.07909595 -0.07301285 -0.14877307 -0.1677399 -0.07231524 -0.115047924 -0.027308566 0.05134053
-0.15979187 -0.08277439 0.00011347752 0.045555953 0.021700332 0.122070976 -0.098491296 -0.061627228
0.07549696 -0.09652415 0.018149452 -0.07437612 -0.06967557 -0.1203308 -0.027590418 -0.09586054
-0.14563332 -0.030564943 -0.10821478 -0.19873323 0.04523845 -0.041164212 -0.09107637 0.01981855
-0.0969503 0.014812993 0.059642676 -0.1650181 0.135749 -0.10862578 -0.025253963 0.078574575
-0.18747514 -0.07366255 -0.12339448 -0.17582694 -0.031106072 0.07569235 -0.023933617 -0.14833073
-0.100125685 -0.16643018 -0.09190215 0.08391469 0.025903435 -0.078746356 -0.030794302 -0.18161438
-0.056383807 -0.1782873 -0.057562917 0.01320853 -0.03383324 -0.029884523 -0.14820652 -0.020966854
-0.07699159 0.05555808 0.0017405967 -0.07064879 -0.059414826 0.122951195 -0.12475366 -0.09885774
-0.18668061 -0.052326158 -0.060311474 -0.13225855 0.01638295 0.10368608 -0.0315949 -0.027701007
0.052459765 0.054361355 -0.012514128 -0.07275708 -0.16173476 -0.009495108 -0.047611788 -0.0749692
-0.0060076467 0.08756784 -0.008369739 -0.07920809 0.0005637691 0.031586938 -0.08985579 -0.080824815
0.14423384 -0.052414425 -0.12658598 0.012625166 0.05661442 0.05944827 -0.03093628 -0.050935637
-0.037360728 0.11731039 0.053900488 -0.026776243 -0.057653837 -0.017772183 -0.05912599 0.06817869

sequential_1/conv2d_5/Conv2D f4 [128, 3, 3, 64]
00000000: 3286 6a3d 0cba 103c ac5e 40bd a751 723d
00000010: d532 05be 9051 f4ba 2b5a 3ebc b3a0 e9bc
00000020: 5318 9c3d f33a 993d c996 7bbd 369b 85bc
00000030: 7a73 96bc 1c31 9fbd 5a3d 8d3c c764 943d
00000040: 1284 95ba 008b 20be eca0 173e 8c5b 6abe
00000050: e23d d63d 40de e7bd 3eb2 313c 67a4 4cbe
00000060: 8ae5 213d 7b87 92bc 6f13 81bc 7714 97bd
00000070: e863 14bd 03c8 4bbd 7c22 ebbc f4f1 b23d
00000080: b9c2 f53c 2b71 2bbe 9123 2d3d ae6f 723c
00000090: fc68 98bc f592 e2bc 713e 833c 672d 47bd
000000a0: 2d7a 9abd c3ca ef3c d2dc 273e 8b6b 2f3e
000000b0: a5f4 e43d f876 56bd 91c6 0abc 3de3 023e
000000c0: 75fa 24bd 8235 41be d1cb 003d 8636 f93d
000000d0: 92ae cf3d 09b9 553e 37a0 9d3c 524d 77bd
000000e0: 8e22 a0bd cd54 fa3c 92e9 07be d905 b63c
000000f0: 6a1f 8bbc 3ebe 843d 3d84 b3b9 658b 5f3d
00000100: fa44 83bd 5189 e9bb 9189 403e 9b38 bebd
00000110: 6aaf d1bb 13b0 933c df22 123e 9863 febd
00000120: 033a e5bd 48e8 b4bd 9885 04be ea7d 1fbd
00000130: 2265 d43d 50b3 1cbd 5fb0 d2bd bc6e 76bd
00000140: 784a 8bbd 294c 243b 53bd 343e aa80 1fbe
00000150: b95f f23d ce52 413d 6ccb ab3c 3e4e b0bd
00000160: f88d 1d3c 554a b43d b40e 84bc cf03 023d
00000170: 29de ce3c 9f21 76bd 39ec 333d e675 fcba
00000180: c1bd 0fbe e92c c1bd f1c0 8c3d f5c6 f23c
00000190: b2de fbbd 2b2f a23b 6d54 2dbb 4d06 a4bd
000001a0: c458 d3bd 5458 08bd 00fc 023d 753e 0abd
000001b0: 983a a23d 7416 babd 00c5 a1bd d7e6 95bd
000001c0: 2fca debb 2bcc 903c 051a 753c 7825 78bd
000001d0: 2d6b d33c a8ec ac3d 1500 8b3d c73b 80bd
000001e0: 80c6 e4bc eefc 083b c8c7 753d 7877 df3d
000001f0: c879 73bc ce10 2dbe f0f9 3e3d a16a 123e
00000200: e9ec 97bb b6b0 383d 8853 a3bd b7e0 3ebd
00000210: e5c9 fd3c 6fce f1bc 7761 2fbd 1523 0abe
00000220: 2171 aa3d 6be8 f0bd 94f7 203c c048 193e
00000230: 856b 11bd f6de 4b3d cff7 0bbd e48b 37bd
00000240: 81c4 893c bf65 cd3d 2c97 b3bd e557 9cbd
00000250: 6ad5 393e 3a42 a43d 0d2f 8b3d 06fb 28bd
00000260: f41e 3bbd f9a2 c23d 73e6 173e b95e 573b
00000270: 7615 0b3d 35f9 20be 61fa 93bb e1c7 3abe
00000280: 764a 073e df8a d7bd d0a3 b2bd eba8 9cbd
00000290: 049c 97bc 0b83 97be 7ff0 ca3d 95f9 2ebd
000002a0: b7f4 ec3d 4bc7 36bd 9c93 803d 4003 783c
000002b0: f25c 5abd fc33 cd3d 4611 83be 4b4f f33d
000002c0: d52a a4bd bf6c 333d 0022 bc3d 343d 563e
000002d0: 5388 87bc c1f3 0c3e 345a d33d 569f 2a3d
000002e0: 7a7d c0bd a2a9 83bd f93b a8bd d998 a03d
000002f0: 4469 8a3c 204b eb3d bca0 d73d c2a2 adbd
00000300: 4ea2 9d3d f827 113b 342e d43d d550 82bd
00000310: 75d4 3bbe 50e9 30be 0c4e a8bc 2bd3 c8bc
00000320: d6be f6bc 5469 a5bd 55e7 98bd f602 193d
00000330: 41d9 30bd 3970 5bbc b9a2 d5bd 3c0d 7ebc
00000340: 3853 fbbc 1ca6 093c f4eb 06be 166d 77bd
00000350: e4ae c33d 9235 963d 4dbc a5bb 6fda 6a3d
00000360: eca3 d8bd c65e 8e3d e69a 883d d32f aebd
00000370: 15fb 06be c6bd 243e 6584 093d 31aa a8bd
00000380: 1da0 963c a8fd edbc e029 3abd d6cb fcbc
00000390: 3589 c7bc a2a5 843d c983 0f3e 6d5b f63c
000003a0: 9fcc a5bd 2062 d3bd ba31 60bd e0a7 273d
000003b0: fbc8 a9bd 69ce edbd 55b1 963d c1e7 97bd
000003c0: 6dee 2cbe c9c1 c13c 0879 9b3c ceb0 a8bd
000003d0: 0ae0 d9bc e323 b83d 3fc5 19be fae0 d2bd
000003e0: dcb8 6cbd 3d54 59bd a453 093e 3f16 b33d
000003f0: 085c 2bbb 9581 86be 27cb 55bd b9c3 313a
0.057256885 0.0088334195 -0.046965286 0.0591599 -0.13007672 -0.001864003 -0.011618177 -0.02851901
0.07621827 0.07481947 -0.061423097 -0.016309362 -0.01836561 -0.07773039 0.017241169 0.07245784
-0.0011407158 -0.15678024 0.1480748 -0.22886485 0.10461022 -0.11321688 0.010845719 -0.1998459
0.039525546 -0.017886868 -0.015756337 -0.0737695 -0.03622809 -0.049751293 -0.028702967 0.08737555
0.030000078 -0.16742389 0.042270247 0.014797134 -0.018604748 -0.027657965 0.016020985 -0.048627283
-0.075428344 0.029271489 0.1639283 0.17130868 0.11179475 -0.05235955 -0.0084701935 0.12781997
-0.040277917 -0.18868068 0.031444374 0.12168603 0.101407185 0.20871367 0.019241435 -0.060376473
-0.07819091 0.030558014 -0.13272694 0.022219585 -0.016982753 0.06481598 -0.00034240066 0.054576296
-0.064096406 -0.007126965 0.18802477 -0.092881404 -0.006399085 0.018028295 0.14271115 -0.1242134
-0.111927055 -0.08833367 -0.12941587 -0.03893844 0.10370852 -0.038256943 -0.10287546 -0.0601642
-0.06801313 0.002506981 0.17650346 -0.15576425 0.11834664 0.04719811 0.020971023 -0.086086735
0.0096163675 0.0880324 -0.016120292 0.031741913 0.025252419 -0.060090657 0.04392645 -0.0019261211
-0.14037229 -0.09432394 0.06872738 0.029635886 -0.12298335 0.0049494705 -0.0026448027 -0.08009014
-0.10319665 -0.03328736 0.031978607 -0.03375097 0.07921332 -0.09086314 -0.07898903 -0.0731942
-0.0067990045 0.01767548 0.014959817 -0.060582608 0.025807941 0.08443576 0.06787125 -0.062614016
-0.027926683 0.002090271 0.06000498 0.10911459 -0.014860578 -0.16900942 0.046625078 0.14298488
-0.004636396 0.0450904 -0.07974917 -0.046601024 0.03098006 -0.02951738 -0.04281756 -0.13489945
0.08322359 -0.1176308 0.009824652 0.14969158 -0.03550293 0.04977318 -0.034171876 -0.044811144
0.016817333 0.10029172 -0.08769068 -0.07633952 0.18147817 0.08020444 0.067960836 -0.04125502
-0.045683816 0.09503741 0.14834003 0.0032862856 0.033956014 -0.15720065 -0.0045159315 -0.1824031
0.13211998 -0.105245344 -0.08722651 -0.07649406 -0.018507011 -0.29592165 0.09909152 -0.04271849
0.11570113 -0.044623654 0.06278154 0.015137494 -0.053311296 0.10019681 -0.25599116 0.11880358
-0.08015982 0.04380488 0.091861725 0.20921785 -0.016544497 0.1376486 0.10319939 0.04165586
-0.09398933 -0.06428839 -0.08214564 0.078416534 0.016895898 0.11488938 0.105287045 -0.08478309
0.07696973 0.0022149067 0.10360375 -0.06363074 -0.18342765 -0.17276502 -0.020545028 -0.024514755
-0.030120295 -0.0807673 -0.07465998 0.03735634 -0.04317594 -0.013393455 -0.104314275 -0.015506085
-0.03067933 0.00840142 -0.13175946 -0.060406767 0.09554842 0.073344365 -0.0050578476 0.05733722
-0.105781406 0.0695167 0.066701695 -0.085052155 -0.13181718 0.16088018 0.033573527 -0.082355864
0.018386895 -0.029051617 -0.04545009 -0.030858915 -0.024357418 0.064769045 0.14015116 0.030072892
-0.08095669 -0.1032145 -0.054734923 0.040931582 -0.08290287 -0.11611635 0.07358042 -0.074172504
-0.16887827 0.023651974 0.01897861 -0.08236848 -0.026596088 0.0899122 -0.1501665 -0.10296817
-0.057793483 -0.05305885 0.13410813 0.087444775 -0.0026147384 -0.26270738 -0.052195694 0.0006781179
